savedModel/model_AnnualRain.pt (torch_old, 88072 bytes, 5 tensors)

0.weight f4 [128, 39]
000000 82 b0 24 bd 0c 96 1d be ea 29 89 bd d3 be 29 bd
       -0.040207393 -0.1538927 -0.066974476 -0.04144175
000010 b5 2d 2e 3d 9c 9f 22 3c 11 13 db 3b f2 dd 07 be
       0.04252406 0.009925749 0.0066856225 -0.13268259
000020 8c a8 d4 3b a6 8b ae 3c c3 6f 9d 3d dc 55 05 be
       0.006489819 0.021306824 0.076873325 -0.13021034
000030 cd 87 03 3e 28 86 e7 3d 2a b7 de bd c2 27 d6 3d
       0.12844773 0.11304885 -0.108747795 0.10456802
000040 3b 7a 01 3d 91 6d 11 3e d2 f7 43 bd 84 7d a2 3d
       0.03161071 0.14201953 -0.04784376 0.079340965
000050 06 e4 01 bd 3a 85 47 bd a5 a9 b9 bc 08 9a 80 bc
       -0.0317116 -0.04871104 -0.0226639 -0.015698448
000060 d3 e2 41 bd bb 2e 70 3d 06 a2 02 3d 76 ad 37 3d
       -0.047335457 0.058638316 0.0318928 0.04484316
000070 79 cd e3 bd 49 34 0f bd cd 84 25 3d fd a0 04 be
       -0.11123175 -0.034961972 0.04040985 -0.12952037
000080 e2 6c a0 bd e8 d4 08 3e 4d ef 07 be 64 50 57 bd
       -0.07833268 0.13362467 -0.1327488 -0.0525669
000090 f6 54 0e be 7f 69 fc bd 28 7f 51 3d 3d 2b ae ba
       -0.13899598 -0.12324809 0.051146656 -0.0013288032
0000a0 b8 15 a5 3c 16 05 98 bc 77 ce f8 bd 3e 5b f9 3d
       0.020151958 -0.018557113 -0.12148755 0.12175606
0000b0 7f 68 9d bd 40 a2 35 bd 28 5e 20 be 20 30 af bd
       -0.07685947 -0.044344187 -0.15660918 -0.08554101
0000c0 85 a4 0a be be 23 f8 3c c7 c4 41 3d a7 95 a1 bc
       -0.13539322 0.03029048 0.047306802 -0.01972468
0000d0 c8 62 53 bb a6 2f 49 bd 94 67 08 3e 56 c3 1a be
       -0.0032254923 -0.049117707 0.13320762 -0.15113577
0000e0 44 b1 0a 3e 69 86 b8 3d 59 47 18 be cf 4e 10 3e
       0.13544184 0.09010012 -0.14870967 0.14092563
0000f0 4f 10 17 3e 6f 8a 65 3d b6 fa e3 3d 61 ab c7 3c
       0.14752315 0.056040224 0.11131804 0.024373712
000100 5b 2d 14 be cb 8a 08 be bd ba f6 3d d7 72 94 bc
       -0.14470427 -0.13334195 0.12047336 -0.018121166
000110 cf 0b 1d be 30 ab 0a be 95 2d bf 3c df c9 a4 3d
       -0.15336536 -0.13541865 0.023337165 0.08046316
000120 c1 16 a4 3a 9a 89 31 bd 1b d2 6f 3c fe 3c a7 bd
       0.0012518988 -0.043344118 0.014637495 -0.0816593
000130 93 f1 d7 bd 26 27 15 be 39 5e d8 b9 3e 30 15 be
       -0.105441235 -0.14565715 -0.00041268932 -0.14569184
000140 82 30 03 3e e4 d3 01 3e c4 a1 29 bd 84 30 0e 3e
       0.12811473 0.12678486 -0.041414037 0.13885695
000150 d0 40 1b 3e 6b 5a 08 3e f0 6c 8e bc c1 1a d7 bb
       0.15161443 0.13315742 -0.01738593 -0.0065644686
000160 ed 84 ca 3d b0 4f ca 3c 3e fe 09 bd cb 9d d2 3d
       0.09888635 0.024696201 -0.03368973 0.10284003
000170 dc 05 16 3d f3 1b f6 bd 25 4b 81 3d 80 67 72 3d
       0.03662668 -0.1201705 0.06313161 0.059180737
000180 97 97 ff 3d 7d 88 46 3d dc c3 36 bd 10 aa c6 bd
       0.12480085 0.04847001 -0.04462038 -0.097004056
000190 0e 2b e9 bc ad 2e 2a bd 81 a3 02 be 3f 41 37 bc
       -0.028462913 -0.04154842 -0.12757684 -0.0111849895
0001a0 cd f0 b1 bd 16 b5 65 3d 60 ff e0 bd ea 2e d3 bc
       -0.08688507 0.0560809 -0.10986209 -0.025779206
0001b0 5c cd c1 bc a4 34 17 be 34 13 a3 3d 09 ce 87 3d
       -0.023657493 -0.14766175 0.07962647 0.06631095
0001c0 e3 b5 1d 3e 51 46 a3 bd ae a3 40 bd c9 a5 b3 3d
       0.15401416 -0.07972396 -0.047031097 0.087718554
0001d0 55 5e b6 bd 57 43 d7 3d 43 99 38 3d fb ae 98 3c
       -0.08904711 0.10510891 0.045068037 0.018638125
0001e0 72 83 89 bd 2f 1b ec 3d db 18 fa 3d 22 06 19 3e
       -0.06714524 0.11528622 0.12211772 0.14943746
0001f0 c5 1d 0b bc 30 b9 4d bd 44 cb 93 3d a3 07 df ba
       -0.008490984 -0.050225437 0.07216504 -0.0017015826
000200 03 ca 03 be ae 0d 76 3b 92 ad 37 3d c0 b9 ed 3d
       -0.1287003 0.0037544775 0.044843264 0.116076946
000210 e7 45 0d be 1e d9 f7 3d 6b 77 e5 3b ff b5 0b 3c
       -0.13796197 0.12101959 0.007002761 0.008527278
000220 0c 8a d5 3d 7c 8e f8 3d e1 67 fe 3c 75 8b d1 bd
       0.10426721 0.12136552 0.031055393 -0.102316774
000230 2a b1 14 3e 1c 4d aa bd bf 53 09 3e 7e 59 c5 3d
       0.14520708 -0.08315489 0.13410853 0.0963621
000240 f1 a2 17 3e 08 36 37 bd d7 15 98 bd 59 41 af 3d
       0.14808251 -0.044729263 -0.074260406 0.08557386
000250 e8 77 cf 3c 2a d5 83 3d 92 c9 bc bd a8 bc ee 3d
       0.02532573 0.06437142 -0.09218134 0.11657077
000260 80 72 f5 bd 69 20 f6 bd d7 57 03 3e ed 4d 4d bd
       -0.1198473 -0.120179005 0.12826477 -0.050123144
000270 13 b2 d1 3d 51 de 80 3d ce 12 a2 3d 67 69 12 3e
       0.10239043 0.062924035 0.07913743 0.1429802
000280 94 a3 3c 3d 37 e2 10 be 1c aa 16 bd be 58 05 3e
       0.046054438 -0.14148794 -0.036783323 0.13022134
000290 fe e7 14 be bf 8e ae bb b8 68 c7 3d 0c ed 37 3d
       -0.14541623 -0.0053270753 0.097367704 0.0449038
0002a0 24 db 0f 3e 2b a8 82 3b 47 96 19 3d 88 0e 10 3e
       0.1404844 0.0039873323 0.03749683 0.14068043
0002b0 e8 86 c6 3d 62 6e 51 3b f3 b5 47 3d af 02 bd bd
       0.096937 0.0031956662 0.048757505 -0.092290275
0002c0 c9 b2 8a bd 8c 8b 4a 3d b3 9d 1e 3e 9e a5 4f bd
       -0.06772382 0.04944949 0.15489845 -0.050695054
0002d0 82 61 15 3d 09 c3 20 be 91 d7 9e 3d f3 49 10 3e
       0.036469944 -0.156994 0.0775596 0.1409071
0002e0 7c 78 24 bd f2 97 21 bd 7f 4b a5 3c 46 4f 1f 3e
       -0.040153965 -0.039451547 0.0201776 0.15557584
0002f0 10 22 0b 3e d9 8c ab 3d 0e b7 d4 bb 77 f9 12 3e
       0.13587213 0.08376474 -0.0064915484 0.14352976
000300 0a d7 04 be 9a 1a 9e bc 2f e0 06 3e c1 3b ee bd
       -0.12972656 -0.019299794 0.13171457 -0.11632491
000310 a6 d0 12 bb 22 58 05 3e 0a b1 c7 3b 02 8a ad 3d
       -0.0022402196 0.13021901 0.0060941027 0.084735885
000320 c0 86 12 be 77 7e fa bd 0e 5e 1e 3e 99 0e ac 3d
       -0.14309216 -0.122311525 0.15465567 0.08401222
000330 39 aa 0f be ac f1 a0 3d 8c 27 04 be 00 97 22 be
       -0.14029779 0.07858595 -0.12905711 -0.15877914
000340 b1 b9 0b 3e ff 0f a0 bd 7b eb f5 3d 8c ec 20 3e
       0.13645054 -0.07815551 0.12007805 0.15715235
000350 63 ae f6 3d f8 ed ee 3d 7e a4 bf 3d 86 62 21 be
       0.120449804 0.11666483 0.09357546 -0.1576024
000360 9b 3a c2 3d 47 67 9a bd f7 62 8a 3d 5a 4d 13 3e
       0.09483834 -0.0753923 0.06757157 0.14384976
000370 21 e5 14 be db 38 01 3e 7f 72 fe bb 22 48 ac 3d
       -0.1454053 0.12619345 -0.007765114 0.08412196
000380 00 aa 86 3d 60 23 ea bd 84 df 7e bd 61 28 80 3d
       0.06575394 -0.114325285 -0.06222488 0.06257702
000390 52 17 0e 3e c0 b2 40 3d ce 45 a5 3d 6c d8 52 bd
       0.13876083 0.04704547 0.08069955 -0.051475927
0003a0 49 fb dc bd be 02 af 3d ef 3c 22 3e f9 d4 a3 3c
       -0.10790116 0.08545445 0.15843557 0.019999014
0003b0 7a 78 06 be d7 6e 89 bd f2 52 d0 bb 78 41 97 3d
       -0.13131896 -0.06710594 -0.006357544 0.07385534
0003c0 a3 28 b8 bc 63 9f 1c 3d 9c 0a 71 3d 4b 20 73 39
       -0.022480315 0.03823794 0.05884801 0.00023186316
0003d0 ce d6 0c be f1 4b bb bd 7c 5c 86 3d b4 e4 d1 bd
       -0.13753816 -0.09145344 0.06560609 -0.102487
0003e0 1e 45 35 3d ec c1 80 bc ce 2a a0 bd 61 e2 d8 bd
       0.04425537 -0.01571747 -0.07820664 -0.10590053
0003f0 a8 90 a7 bd ff f2 da bd 95 ae be 3d 6a 9f 1e bc
       -0.08181888 -0.10690879 0.09310643 -0.009681562

0.bias f4 [128]
000000 5a 69 04 be ee 3e ff 3d aa fb 21 be 4f 26 c4 3c
       -0.12930813 0.12463175 -0.15818658 0.023944048
000010 80 44 9e 3c 83 4a d9 3c b5 87 9a bb 91 8f 3c b8
       0.019319773 0.026524788 -0.0047158846 -4.49564e-05
000020 e1 d7 6b bd 0d 98 56 3d 11 1c 37 3d eb be 91 3d
       -0.057578925 0.0523911 0.0447045 0.07116493
000030 8a 75 07 be 91 8d 18 3e f6 01 e6 bd 28 01 d4 3d
       -0.13228431 0.14897753 -0.11230843 0.10351783
000040 a0 0f 72 3d b7 20 e6 3b d9 e9 c5 3d ac 6d 0c be
       0.059096932 0.007022943 0.096637435 -0.13713712
000050 26 20 09 3e ab e4 56 3d 8c 2e b8 bd 7d aa 87 3d
       0.1339117 0.05246417 -0.08993253 0.06624315
000060 36 ff 20 bd 53 f1 f3 3d bf 0e 13 3d 87 22 b1 3d
       -0.039305888 0.11911263 0.035902735 0.08649164
000070 37 0d 05 be 50 85 0d 3e 20 fc a1 3d e3 75 d5 3d
       -0.12993322 0.13820386 0.07909417 0.10422876
000080 08 9a 01 be 11 9a db bd ca 10 16 be 6e 36 0b bd
       -0.12656415 -0.10722745 -0.14654842 -0.033987455
000090 ce 59 9b 3c 5a eb dc bc ab fa 78 bd 67 e5 a0 3c
       0.01896372 -0.026967693 -0.06078593 0.019640638
0000a0 44 35 45 3d 83 ae 88 3b ff 95 bf 3d fb f3 1b 3d
       0.0481465 0.004171194 0.09354781 0.038074475
0000b0 b0 4a 0e 3e 9d 73 ac 3d 79 18 39 3d a7 4e 0e be
       0.13895679 0.08420489 0.045189355 -0.13897191
0000c0 8c c4 21 be 80 1f 11 be 1f 10 22 3e 48 e8 1b 3e
       -0.15797633 -0.14172173 0.15826462 0.15225327
0000d0 5d 61 49 bd 4a 36 e0 3c c9 92 16 be d2 ff 11 be
       -0.04916512 0.027369637 -0.14704432 -0.14257744
0000e0 e2 98 1d bd c0 f8 35 bd 39 7a 91 3c 38 f7 e6 ba
       -0.03847588 -0.04442668 0.017758476 -0.0017621284
0000f0 9a 61 0e be 36 97 0b 3d a6 1b 75 3c 54 f8 0b be
       -0.1390442 0.034079753 0.014960205 -0.13668948
000100 6f 71 fb bd ae 3a 96 bd 5f 58 54 ba 12 86 20 3e
       -0.12277495 -0.07335411 -0.00081003265 0.15676144
000110 2e 98 85 3c a9 5f d0 bd 58 7c 26 3d a9 21 99 bd
       0.016307916 -0.10174496 0.040645927 -0.07477123
000120 27 8a d3 bd 25 89 16 be 40 af da 3d 98 3b 09 3e
       -0.10329085 -0.14700754 0.106779575 0.1340164
000130 ec 9d 92 3d 0d c7 30 3d a2 24 16 be b6 a1 06 3e
       0.071590275 0.04315858 -0.14662412 0.13147625
000140 08 5f 4c bd 7b d4 18 be db e8 ce 3d 40 1e b5 bc
       -0.049895316 -0.14924805 0.101030074 -0.02210915
000150 d1 9c 14 be d4 e5 ac 3c c5 44 dd bd 0f fe e9 bd
       -0.14512946 0.021105684 -0.10804132 -0.11425411
000160 68 62 8c bd 24 4e 95 bd 79 8d 0c be 95 f9 e0 bd
       -0.06854707 -0.07290295 -0.13725843 -0.10985104
000170 c1 10 1a 3d 81 96 10 be 8f 65 d6 bc 80 d1 a8 bd
       0.037613634 -0.14119913 -0.026171474 -0.08243084
000180 e9 dc 96 bd 5b e9 b0 bd 2d c1 aa 3b a5 be e9 3d
       -0.07366354 -0.08638259 0.0052110166 0.11413316
000190 f4 e4 f7 3c 6b e8 98 3d 2e 46 5d 3d 90 a4 1d be
       0.03026054 0.07466205 0.054022007 -0.15394807
0001a0 28 89 62 3d 4b 2b d5 3d 91 4d 09 be 5d 88 00 bd
       0.055306584 0.10408648 -0.13408495 -0.031380046
0001b0 5b 8e 52 39 b3 ae 12 be 33 ab 1a be bb 0d 14 3e
       0.00020080192 -0.14324455 -0.1510437 0.14458363
0001c0 1c 4a 96 3d fd 0e cc 3d 11 e5 d5 3d b9 78 aa bd
       0.07338354 0.09963796 0.104440816 -0.08323807
0001d0 5e ee 33 3d ab d3 82 3d f6 47 fd 3c 24 10 90 3d
       0.043928497 0.06388029 0.030918103 0.070343286
0001e0 5c ca 2f 3c 46 bf 0f 3e bd 3f 93 bd aa 5f 2e 3d
       0.010729399 0.14037809 -0.071898915 0.0425717
0001f0 b1 12 7e 3c 8b a7 02 3e cf 9e c3 3d b0 76 b7 3d
       0.015507386 0.12759225 0.09551775 0.08958185

2.weight f4 [128, 128]
000000 6f fc ac bd 37 c7 00 3c b9 19 43 3d b8 78 b3 bd
       -0.084465854 0.0078599965 0.047631953 -0.0876326
000010 70 1c 6a bd 4a 35 80 3d cf 2b 79 bd 1c df 97 bd
       -0.057156026 0.06260164 -0.060832795 -0.074156016
000020 aa 09 35 3d 80 95 10 bd cc 31 98 3d 04 86 ad 3d
       0.04419867 -0.035298824 0.07431373 0.08472827
000030 8f ef 72 3d 3e 20 40 3d 0a f4 4d 3c 66 b1 bc bb
       0.059310492 0.04690575 0.0125703905 -0.005758452
000040 8b 49 e6 bc 9d b1 b9 3c 76 9f 92 bd 30 91 78 bc
       -0.02811124 0.0226677 -0.07159321 -0.015171334
000050 79 87 5a 3d 6b 72 2d bd ad 95 76 3c ef ea 5d 3d
       0.053351853 -0.042345446 0.015050334 0.05417913
000060 6d c4 7d bd dd e3 c0 bb fe 9a 25 bc a0 a7 6f bd
       -0.061954904 -0.0058865384 -0.010107754 -0.05850947
000070 c7 15 95 3d e4 6c 97 3d f8 56 96 bd 28 9c 16 bd
       0.07279544 0.07393816 -0.07340807 -0.036770016
000080 13 2b 8d bd 80 8a 5a bd eb 67 55 3d 0a d6 06 3c
       -0.068929814 -0.05335474 0.052101057 0.008229742
000090 c5 ed 44 3d f3 cf 7d 3d 6f 2b f3 bc 63 cb 59 3c
       0.048078317 0.061965894 -0.029683797 0.01329312
0000a0 80 6f 69 3c e5 a2 78 3d 3b 58 98 bd 2f 10 d3 bc
       0.014247775 0.060702223 -0.074387036 -0.025764553
0000b0 cf 72 d3 bc 1f 37 82 3c c0 17 25 bc c1 17 0f 3d
       -0.025811581 0.015895424 -0.010076463 0.034934763
0000c0 d6 67 b9 3c e9 f8 30 3c e3 16 cd bc ce 10 92 bd
       0.02263252 0.010801532 -0.025035327 -0.071321115
0000d0 63 9e 8f 3d ca 92 45 bd 44 cd f8 3c 4e 10 31 3d
       0.07012632 -0.048235692 0.030371316 0.04322844
0000e0 02 85 46 3d 27 a2 6c bd 79 02 4c bd 0a 0a 89 3d
       0.04846669 -0.057771828 -0.049807046 0.06691368
0000f0 6a ef a3 bd e5 c8 eb 3c d3 48 87 bc b5 da b8 3c
       -0.08004649 0.028782317 -0.016514217 0.022565225
000100 b6 52 b1 bd c3 ae 8e bc c6 85 ec bc e3 03 2a bd
       -0.08658354 -0.017417317 -0.028872382 -0.041507613
000110 36 70 a4 bb 41 09 07 bd 87 85 3e bc 1d 16 6a bb
       -0.0050182594 -0.03296781 -0.011628515 -0.0035718747
000120 74 18 a8 3c 90 08 3d 3d 08 d6 92 3b 85 d0 ab 3d
       0.020519473 0.046150744 0.004481081 0.08389381
000130 b1 1a 3e 3d 16 20 47 3b 33 48 89 bd 43 ea 16 3c
       0.046412174 0.0030384115 -0.06703224 0.009211126
000140 20 4f 1a 3d c3 bc b3 3d e4 48 12 b9 16 ee 98 3d
       0.037673116 0.08776238 -0.00013950799 0.07467286
000150 49 75 38 3d d0 37 70 3c 9b 85 a2 3d 8f a8 00 3d
       0.045033727 0.014661744 0.079356395 0.03141075
000160 6e fd cf ba 9c 02 69 bd 62 4a ba 3c a1 3c 59 bd
       -0.0015868375 -0.056887254 0.022740547 -0.053036336
000170 c0 31 87 bd a7 00 7e bd c6 6c 78 3d 0a 5b 5d 3d
       -0.06601286 -0.06201234 0.06065061 0.0540419
000180 38 a9 c1 3c 85 8f 2b bd 5e 0c 70 bc 66 b9 f8 3c
       0.02364026 -0.041884918 -0.014651386 0.030361842
000190 ef 8c 95 bd 24 f8 ab 3d 1f 38 2e 3d bd 94 5a bc
       -0.073022716 0.083969384 0.04253399 -0.013341126
0001a0 a6 db 88 3d ef e6 69 3d bd 15 a6 3d 1e 09 9d bd
       0.066825196 0.057105 0.08109615 -0.076677546
0001b0 bb d4 7a 3d 45 43 54 3d 9c 66 8c 3d 51 59 23 bd
       0.06123803 0.051821966 0.06855509 -0.0398801
0001c0 22 52 75 3d d6 48 7b 3d 1a d1 4d 3d 6b 2a 3c bc
       0.05989278 0.06134876 0.050248243 -0.011484723
0001d0 97 dd 77 bd a9 0e 57 bd f5 3c 41 bc 5f f7 1e 3d
       -0.06051406 -0.052504215 -0.011794318 0.03881013
0001e0 60 70 81 bc ee 27 1a bd 27 ca 0f 3d 15 79 a4 3d
       -0.015800655 -0.037635736 0.035104897 0.08030907
0001f0 46 de 8e bd d1 9b 89 3d c8 b7 0f bd 90 79 3a 3d
       -0.06975989 0.06719173 -0.035087377 0.045526087
000200 db 1e 92 3d 64 76 80 3d fb 82 77 3c 07 86 92 3d
       0.071347915 0.06272581 0.015106912 0.0715447
000210 96 32 58 3c 05 56 09 bc e1 5c 86 3a bc 4f 7b 3d
       0.013195654 -0.008382325 0.0010251069 0.061355338
000220 d5 03 55 bd f1 83 e6 3c e3 32 e3 bc c5 4f 86 3d
       -0.052005608 0.028139086 -0.027734226 0.065581836
000230 37 88 cd bc f9 80 aa 3d 38 39 b5 bd df 79 7c bd
       -0.025089366 0.08325381 -0.08848804 -0.061639663
000240 a9 9e ed bb 0b 7e b2 bc 5f ea d4 bc cb 8c b3 3d
       -0.00725158 -0.021788618 -0.025990663 0.087670885
000250 e2 94 77 3d 7d 25 97 bc c6 ac 0b bd 0c 40 97 3d
       0.06044472 -0.018450493 -0.034100316 0.07385263
000260 c3 5a 20 bd 37 6b 15 3d 2c 2f 9a bd c3 12 3f 3c
       -0.039149057 0.0364792 -0.075285286 0.011662188
000270 11 50 87 3d f9 04 88 bd 62 97 ab bd 42 38 38 3d
       0.06607068 -0.066415735 -0.08378483 0.044975527
000280 a6 25 19 3d 50 81 95 3d a7 ee 8e 3d cc 25 98 bd
       0.03738942 0.07300055 0.06979113 -0.07429084
000290 6e f5 59 3c 11 92 ed bc f3 19 81 bd 6f f0 11 3d
       0.013303144 -0.029000314 -0.063037775 0.035629686
0002a0 f3 e6 ac 3c d2 93 79 3d 26 3d a4 bb a9 88 d6 bc
       0.021106219 0.060931988 -0.0050121723 -0.026188212
0002b0 c7 b6 86 3d 6c cd a5 3d 52 41 5f bd 7e 72 15 3c
       0.06577831 0.08095822 -0.054505654 0.009121535
0002c0 a1 5e ab 3d c2 54 3b 3d 48 60 c7 bb 85 29 b0 bb
       0.083676584 0.04573513 -0.0060844757 -0.0053760433
0002d0 9b 6f 83 3d 5a 46 f0 3c 9e 9a 95 bc 2c 82 07 bd
       0.064177714 0.029330421 -0.018262204 -0.033083126
0002e0 b3 e7 90 bd b3 bd a3 bd 88 47 ce bc de f2 68 3d
       -0.07075443 -0.07995167 -0.025180593 0.05687224
0002f0 be e3 57 3d 04 24 81 3c a2 ad cc ba 4f 5f 10 3c
       0.052707426 0.015764244 -0.0015615711 0.008811786
000300 53 20 2d 3d 15 86 11 ba 51 55 d2 3c 58 b0 83 bd
       0.042267155 -0.0005551291 0.025675448 -0.06430119
000310 a3 57 73 bd bc 0a 81 3d bb b1 cc 3c 37 23 76 bb
       -0.05940975 0.063008755 0.024987092 -0.003755761
000320 0b d4 9a bd ba fa ac 3d 8f 5d da 3b a7 3d 80 bd
       -0.07559975 0.0844626 0.006663985 -0.06261759
000330 ec bc 60 bd 8b 47 9f 3d 89 c5 85 bc 82 2c 88 bd
       -0.05486767 0.077773176 -0.016329544 -0.06649114
000340 0b ae e3 bc ac 3f 66 3d cb 35 98 3d 7c ab 71 bd
       -0.027792951 0.056213066 0.07432135 -0.05900143
000350 98 9b a8 bd 94 9f 60 bd 7f c2 7e bd 0a df 72 bd
       -0.08232802 -0.054839686 -0.062197205 -0.059294738
000360 af 93 ae 3d 43 73 b6 3d 91 f8 b9 bb 13 97 72 3d
       0.08524262 0.08908703 -0.0056753834 0.059226107
000370 c5 bd ad bd b7 54 a4 3c 0c bd 86 3d cb 92 c9 3c
       -0.08483461 0.020059926 0.065790266 0.02460613
000380 26 45 ae bd 5f 59 82 bd 05 4f 43 bc db 79 b5 bc
       -0.08509283 -0.063647024 -0.011920695 -0.022152832
000390 32 39 86 bd f3 50 00 bc b1 ab 88 3c e0 4a 83 3d
       -0.06553878 -0.0078318 0.016683431 0.06410766
0003a0 b2 2e a0 3d bd 8a 38 bd 38 bf 7c 3d 24 bb b0 3d
       0.078214064 -0.045054186 0.061705798 0.08629444
0003b0 b7 a3 85 3d 07 b2 9d bd 43 6e 2b bd 4c b6 09 3c
       0.06525367 -0.07699972 -0.0418532 0.008405279
0003c0 a6 cf 48 3d fd 85 7a 3c 85 b6 b5 3d 78 35 66 3d
       0.049026154 0.015290734 0.088727035 0.056203336
0003d0 a8 c0 a3 bd 68 12 98 3d a3 65 ba bb f1 f8 83 bd
       -0.07995731 0.07425386 -0.0056883856 -0.06443966
0003e0 a8 53 a1 bd 6d 47 47 3d 25 a5 0f 3d a7 1c 18 3d
       -0.07877284 0.0486521 0.035069603 0.0371367
0003f0 b7 45 b1 bc 36 b3 cb 3b d0 6f a8 bd 74 c3 dc 3c
       -0.021639688 0.006216432 -0.082244515 0.026948668

2.bias f4 [128]
000000 94 bd ae bd eb 19 41 3c 5f e0 33 3c 98 9c 90 3d
       -0.08532253 0.0117859645 0.010978787 0.07061118
000010 3f 82 7f bc d8 73 61 bd 97 e7 2d 3d 14 7f 3a bd
       -0.015595018 -0.055042118 0.04245719 -0.045531347
000020 ec 04 33 bc e8 eb 73 3d f2 f1 85 bd 8e 9f 80 bd
       -0.010926466 0.05955115 -0.06540288 -0.06280433
000030 f2 88 1c 3d e6 81 73 3d c6 79 50 3c ce 4e 86 3d
       0.03821654 0.059450053 0.012724346 0.065579996
000040 5e 0a b4 bd 41 f8 31 bc 3f 3d 61 bc df 0d ae 3d
       -0.0879104 -0.010862411 -0.013747512 0.084987395
000050 3f 0c 46 bd 30 86 10 3d 1c e2 82 bd 6e 2e 8f bd
       -0.048351523 0.03528422 -0.06390783 -0.06991278
000060 b8 60 3f bd 02 20 9d 3d 7d 69 55 bd 4e b2 a0 bb
       -0.046723098 0.07672121 -0.052102555 -0.004904068
000070 3a d7 36 bc ec b0 7b 3b 88 0a b4 3b 3a b1 7b bd
       -0.011159712 0.0038405014 0.0054944195 -0.061448313
000080 76 f1 95 bd 3e a8 9a bd 19 fc b7 3c de 9b 86 bd
       -0.07321446 -0.07551621 0.022459077 -0.06572698
000090 3b aa 2e 3c 5a 50 6c 3c a6 de 3d bb 8e 4f f4 bc
       0.010660703 0.014423454 -0.002897182 -0.02982309
0000a0 03 2c fd 3c 73 4b 37 3d d4 62 bf 3b 38 bc 0a 3d
       0.030904775 0.04474969 0.0058406387 0.033870906
0000b0 bb 5b c2 bc ef a9 72 bd 19 39 b1 bc 1b 4a 9c bd
       -0.023725381 -0.059244093 -0.021633672 -0.07631322
0000c0 e6 12 6c bc 38 fc a6 bc 78 de 94 3c c7 a6 41 3c
       -0.014408803 -0.02038394 0.018172488 0.011819548
0000d0 9c bb 81 3d 5e fa 0b 3c 4d 67 ff 3c 22 00 18 bd
       0.06334612 0.008543579 0.031177187 -0.0371095
0000e0 1f 09 1b 3d b9 d5 d6 bc 31 d9 87 bd aa a7 a5 3d
       0.037850495 -0.026224958 -0.06633223 0.0808862
0000f0 87 59 70 3d c0 e1 c0 bc 99 da 66 3d 36 53 84 bd
       0.05867913 -0.023545146 0.056360815 -0.06461184
000100 f2 7e 75 3d 66 4f 43 bd 15 49 85 3c fc 17 6f bc
       0.059935518 -0.047683142 0.0162702 -0.014593121
000110 d1 20 25 bd 3b c2 82 bd 5e ab 1d bd b0 61 d4 3c
       -0.0403145 -0.06384703 -0.038493507 0.025925487
000120 f5 0c 76 bd 76 1f 32 3d 6f 64 8e 3d f6 2c a8 bd
       -0.06007095 0.043487035 0.0695275 -0.082117006
000130 c3 cd 9e 3d 3d 9f e5 3c 28 d6 1a 3d 1c b8 9f 3d
       0.0775409 0.028030032 0.03780189 0.07798788
000140 27 e8 92 3d a1 4a 2a bb ca a8 a1 3d 8d cc 60 3d
       0.07173186 -0.0025984424 0.07893522 0.054882575
000150 84 3d a3 bd 6e a7 44 bd 88 cf a3 bc 2d 16 1d bc
       -0.079707175 -0.048011236 -0.01999642 -0.009587807
000160 56 11 51 3c 62 75 44 3d 61 a2 3e bd 93 32 96 bd
       0.012760481 0.047963507 -0.046541575 -0.07333865
000170 0a f9 93 bd 80 52 a1 3d 47 e1 db 3c 1c 4e 30 bd
       -0.07225235 0.07877064 0.026840819 -0.04304324
000180 1a 42 26 ba d0 20 24 3d 02 a9 a0 bd 13 07 8b bd
       -0.00063422474 0.040070355 -0.07844736 -0.06788459
000190 c7 dc eb 3c 8f dd af 3d 2f df 89 bc 28 ce a0 3d
       0.028791798 0.08587181 -0.016830055 0.07851821
0001a0 cf 69 ac 3c 35 9c a5 bd d8 06 46 bc ac 60 46 bc
       0.021046547 -0.08086435 -0.012086593 -0.012108009
0001b0 ec a4 53 bd ce 90 44 3d f8 49 f5 bb 27 bb f8 3c
       -0.051670954 0.04798966 -0.0074856244 0.030362679
0001c0 bc 96 81 3d 92 4f 9b 3d c0 ce 7c 3d 8d de 99 bd
       0.063275784 0.07583536 0.06172061 -0.07513151
0001d0 7d b2 a5 bd aa 6f d1 bb 26 d7 70 bd ec fc cf 3c
       -0.080906846 -0.006391485 -0.05879893 0.025389157
0001e0 00 00 ab 3d e6 8b a8 bd 32 3d 31 3d db f3 04 bd
       0.083496094 -0.082298085 0.04327125 -0.03245912
0001f0 c8 ca a8 bc fa f4 89 3d 32 5d 8c bd fa 09 b5 bc
       -0.020604506 0.06736179 -0.06853713 -0.022099484

4.weight f4 [1, 128]
000000 56 8f 8f bd 22 57 99 3d 1f e5 5f bd dd 05 a7 3d
       -0.07009761 0.074873224 -0.054661866 0.08155415
000010 0c df 28 bc 2e 9b 60 3d 0b 9a 46 3d 18 3e d6 3c
       -0.010307085 0.05483549 0.04848675 0.026152655
000020 f0 7b 11 3b af 7c b7 bd 6b bd ab bd e1 19 fb bc
       0.0022199117 -0.089593284 -0.08385738 -0.030651988
000030 2d 48 54 3d 14 df a5 3d 18 a1 19 bb 97 a5 0e bd
       0.051826645 0.080991894 -0.0023441967 -0.034825888
000040 19 c3 c5 bc 96 b2 ad 3d 2a b2 8a 3d 21 3f 91 3d
       -0.024140881 0.08481328 0.06772263 0.07092119
000050 69 45 ae 3d 7c 4b 94 bd 1b 67 cc bb 35 22 8d 3d
       0.08509333 -0.0724096 -0.006237877 0.0689129
000060 8b 1c cf bc 97 94 66 bd 5e 40 a8 bc 85 60 a5 3d
       -0.025282165 -0.05629405 -0.020538505 0.0807505
000070 92 b1 a1 bd 9f c0 6a bc 7a 4e d9 3a e3 43 b1 3d
       -0.07895197 -0.014328151 0.0016579174 0.086555265
000080 e5 19 91 bd 8a 96 23 bd da ea 60 bb b9 25 a5 3d
       -0.07085017 -0.039938487 -0.003431967 0.08063836
000090 5b 78 8e 3d 48 1e c8 3b 9b 1c 97 3d 4d d5 bd 3c
       0.0695655 0.0061071254 0.07378503 0.023172999
0000a0 9d 04 91 3d cd 0d 3b bd d3 50 7d 3d 43 62 76 3d
       0.07080958 -0.04566746 0.061844658 0.060152303
0000b0 34 65 0a bd 5f ed 37 3b 08 7f 52 3d 37 b5 a6 bd
       -0.03378792 0.0028065068 0.051390678 -0.08140033
0000c0 c2 15 5d 3d 15 e8 9e bc 65 11 69 3c cd e0 f1 bc
       0.053975828 -0.019397775 0.014225339 -0.029526139
0000d0 33 41 5a 3d e9 e0 95 bd 86 35 b2 3d 77 33 60 3d
       0.053284835 -0.07318289 0.08701615 0.05473658
0000e0 52 89 ae 3d 54 0b a9 3d 32 7f 83 3d 32 43 11 39
       0.085222855 0.08254114 0.06420745 0.0001385331
0000f0 2e 44 37 bd ef 6a 97 bc cc 8b 84 bd 6a 1c 9b 3d
       -0.044742756 -0.018483607 -0.06471977 0.07573779
000100 8e 31 9d 3d e7 50 e5 bc 51 64 4c 3d fb f7 ba 3c
       0.076754674 -0.027992679 0.049900357 0.022823324
000110 29 b3 e5 bc 39 02 c7 bc e3 2c 27 bc e8 b4 8d bd
       -0.028039532 -0.024293052 -0.010203573 -0.06919271
000120 5f 20 8f 3d ca 34 88 bd 61 ec 16 bd d6 9a 1c bd
       0.06988596 -0.06650694 -0.036846522 -0.0382336
000130 60 2f ad bd dd 4b 3e bd d9 30 83 bd be d5 bc 3c
       -0.08456302 -0.046459068 -0.06405801 0.023051139
000140 b1 8a 0b 3d b6 84 28 3d 0c 30 78 3d fe d7 9e 3d
       0.034067813 0.041142188 0.060592696 0.07756041
000150 3a b9 77 bd b9 3a 83 3c 21 ed 86 3c f2 21 bc bd
       -0.06047938 0.016019212 0.016470494 -0.09186162
000160 d2 4b 47 bb 4d 76 e3 3b bc 8f 88 3c d7 93 80 3d
       -0.0030410183 0.006941593 0.0166701 0.06278198
000170 18 a4 3f bd 28 af 48 3d 5a c9 f5 bb c8 b0 31 3c
       -0.04678735 0.048995167 -0.0075008096 0.010845371
000180 88 16 89 3d b6 9d a6 bc b1 5b 9c bd b8 54 f2 bc
       0.066937506 -0.020338874 -0.07634676 -0.029581413
000190 d4 8a b4 3d 1b 5b a5 bd 0c a7 02 bd ea 7f f1 3c
       0.08815542 -0.080740176 -0.03189759 0.02947994
0001a0 03 6a 03 3d ca a9 61 3d 04 23 a9 bc 09 12 66 3d
       0.032083523 0.055093564 -0.02064658 0.056169543
0001b0 bb ba 6c 3d f5 b0 2c 3d b5 c4 80 bc be 95 dc bc
       0.057795268 0.042160947 -0.015718797 -0.026926871
0001c0 8b 38 43 bd 03 68 80 3d ba 22 08 bd 6f 55 0e bd
       -0.047661345 0.06269839 -0.033236243 -0.034749445
0001d0 fd 50 de 3c f5 ce 1e 3d cc 83 a5 bd eb d5 15 3c
       0.027138228 0.03877159 -0.08081779 0.00914524
0001e0 8a 3e a6 bd 18 6f 8b 3d 94 45 11 3d 66 eb 07 3d
       -0.08117397 0.06808299 0.035466745 0.033183478
0001f0 88 b5 04 bd bd d0 53 3d f9 fe ed bc f4 f3 22 3d
       -0.032399684 0.05171274 -0.029052244 0.039783433
