savedModel/model_jul-rain.pt (torch_old, 88072 bytes, 5 tensors)

0.weight f4 [128, 39]
0	0xbd24f39b	-0.040271383
1	0xbe1da6ec	-0.15395707
2	0xbd894076	-0.06701748
3	0xbd29ff8c	-0.041503474
4	0x3d2e0c58	0.04249224
5	0x3c220208	0.00988818
6	0x3bd9cdee	0.006646863
7	0xbe07ddf0	-0.13268256
8	0x3bd3efa2	0.0064677754
9	0x3cae3789	0.021266716
10	0x3d9d57e2	0.07682778
11	0xbe056014	-0.13024932
12	0x3e037e09	0.12841047
13	0x3de7620f	0.11298
14	0xbddeda4d	-0.10881481
15	0x3dd60e9d	0.10452006
16	0x3d014f66	0.03156986
17	0x3e116372	0.14198092
18	0xbd441a7b	-0.047876816
19	0x3da26cbb	0.07930895
20	0xbd0209fd	-0.031747807
21	0xbd479b69	-0.048732195
22	0xbcb998f2	-0.022655938
23	0xbc80e7b3	-0.015735483
24	0xbd421b2d	-0.047389198
25	0x3d6fedf7	0.05857655
26	0x3d024f23	0.031813752
27	0x3d375cc2	0.044766195
28	0xbde3e5b4	-0.11127797
29	0xbd0f6b1f	-0.035014268
30	0x3d255f66	0.040374182
31	0xbe04a9dd	-0.12955423
32	0xbda087d8	-0.0783841
33	0x3e08cf0c	0.13360232
34	0xbe07f88a	-0.13278404
35	0xbd576e30	-0.052595317
36	0xbe0e6153	-0.13904314
37	0xbdfc8a1a	-0.12331028
38	0x3d513ad1	0.051081482
39	0xba83d239	-0.0010057158
40	0x3ca6736d	0.020318711
41	0xbc96fe53	-0.018431818
42	0xbdf82bda	-0.12117739
43	0x3df9c569	0.12195856
44	0xbd9cf7b6	-0.076644346
45	0xbd34e1ae	-0.044160537
46	0xbe2069e0	-0.15665388
47	0xbdaee6e1	-0.085401304
48	0xbe0a63af	-0.13514589
49	0x3cfabd79	0.030607926
50	0x3d42826d	0.047487665
51	0xbca04094	-0.019562043
52	0xbb3bed5c	-0.0028675413
53	0xbd4802b8	-0.048830718
54	0x3e089f7e	0.13342091
55	0xbe1a9e80	-0.15099525
56	0x3e0af4eb	0.13569991
57	0x3db8dca3	0.09026458
58	0xbe183e2f	-0.14867471
59	0x3e10871d	0.14114042
60	0x3e1731f6	0.14765152
61	0x3d65a635	0.05606671
62	0x3de45f64	0.11151007
63	0x3cca3f00	0.024688244
64	0xbe13db8f	-0.14439224
65	0xbe081ed2	-0.13293007
66	0x3df7579f	0.12077259
67	0xbc9314c6	-0.017954241
68	0xbe1ccf29	-0.153134
69	0xbe0a6cbd	-0.13518043
70	0x3cc0c818	0.023532912
71	0x3da52976	0.08064549
72	0x3ab70e47	0.0013966047
73	0xbd309542	-0.043111093
74	0x3c736a18	0.014856838
75	0xbda6a4df	-0.081369154
76	0xbdd73f97	-0.10510176
77	0xbe14cbd8	-0.14530885
78	0xb9d680d7	-0.00040913254
79	0xbe15303e	-0.14569184
80	0x3e032f3d	0.12810989
81	0x3e01d5d8	0.12679231
82	0xbd29a516	-0.041417204
83	0x3e0e3084	0.13885695
84	0x3e1b40d0	0.15161443
85	0x3e08548f	0.13313507
86	0xbc8e7e44	-0.017394193
87	0xbbd755a9	-0.006571491
88	0x3dca83a0	0.09888387
89	0x3cca44dd	0.02469104
90	0xbd09fdc1	-0.033689264
91	0x3dd2a025	0.102844514
92	0x3d160d6f	0.036633905
93	0xbdf61bf3	-0.1201705
94	0x3d8147ce	0.06312524
95	0x3d7263dd	0.05917727
96	0x3dff91bb	0.12478968
97	0x3d467990	0.048455775
98	0xbd36bff4	-0.044616655
99	0xbdc6b1e0	-0.09701896
100	0xbce9650b	-0.028490564
101	0xbd2a37b6	-0.041557036
102	0xbe02a381	-0.12757684
103	0xbc372e75	-0.01118051
104	0xbdb1eb80	-0.08687496
105	0x3d65bc33	0.056087684
106	0xbde102f1	-0.10986889
107	0xbcd33080	-0.025779963
108	0xbcc1d594	-0.023661412
109	0xbe1734a4	-0.14766175
110	0x3da31140	0.079622746
111	0x3d87ca21	0.0663035
112	0x3e1db5e3	0.15401416
113	0xbda34c2d	-0.07973514
114	0xbd40a796	-0.047034822
115	0x3db3a7bd	0.08772228
116	0xbdb6575c	-0.08903381
117	0x3dd7525a	0.10513754
118	0x3d38b662	0.04509581
119	0x3c98dc60	0.01865977
120	0xbd897731	-0.06712187
121	0x3dec2582	0.115305915
122	0x3dfa20ab	0.12213262
123	0x3e190bfe	0.14945981
124	0xbc0af044	-0.008480135
125	0xbd4da700	-0.05020809
126	0x3d93d5bd	0.07218502
127	0xbadc9713	-0.0016829692
128	0xbe03c80f	-0.12869285
129	0x3b781b5f	0.0037858111
130	0x3d37cd8d	0.044873763
131	0x3dedca5c	0.116108626
132	0xbe0d411e	-0.13794371
133	0x3df7e1e5	0.12103633
134	0x3be632fb	0.0070251203
135	0x3c0bf3c5	0.008542006
136	0x3dd5902b	0.104278885
137	0x3df89458	0.12137669
138	0x3cfe8ea6	0.03107388
139	0xbdd18240	-0.10229921
140	0x3e14b706	0.14522943
141	0xbdaa3df4	-0.08312598
142	0x3e095d83	0.13414578
143	0x3dc56b47	0.09639602
144	0x3e17acb5	0.14811976
145	0xbd3721b7	-0.044709887
146	0xbd980c13	-0.07424178
147	0x3daf4cc1	0.085595615
148	0x3ccf9816	0.025341075
149	0x3d83e0f1	0.064393885
150	0xbdbcc2cc	-0.09216842
151	0x3deec860	0.11659312
152	0xbdf565af	-0.11982285
153	0xbdf61359	-0.12015409
154	0x3e035dc2	0.12828735
155	0xbd4d2711	-0.050086085
156	0x3dd1c816	0.102432415
157	0x3d80fd91	0.06298364
158	0x3da243a2	0.07923056
159	0x3e127e98	0.14306104
160	0x3d3cffa2	0.046142228
161	0xbe10dd37	-0.14146887
162	0xbd16872d	-0.036750007
163	0x3e0571c3	0.13031678
164	0xbe14d08e	-0.14532682
165	0xbbaccd52	-0.0052734995
166	0x3dc79571	0.097453006
167	0x3d386ed8	0.045027584
168	0x3e0fdb24	0.1404844
169	0x3b83ca40	0.004021913
170	0x3d19bbd6	0.03753265
171	0x3e102210	0.14075494
172	0x3dc6caf4	0.09706679
173	0x3b571eb3	0.0032824695
174	0x3d47fbc5	0.04882409
175	0xbdbccbad	-0.092185356
176	0xbd8abee9	-0.067746945
177	0x3d4ae805	0.049537677
178	0x3e1ebbba	0.155013
179	0xbd4f6eb9	-0.050642703
180	0x3d157b39	0.036494467
181	0xbe20c518	-0.15700185
182	0x3d9ee2a9	0.07758076
183	0x3e105035	0.14093097
184	0xbd241fde	-0.040069453
185	0xbd210576	-0.03931185
186	0x3ca602ad	0.020264948
187	0x3e1f590a	0.1556131
188	0x3e0b2de5	0.13591726
189	0x3dab9e6d	0.08379827
190	0xbbd29d52	-0.0064274454
191	0x3e130b0b	0.14359681
192	0xbe04c95e	-0.1296744
193	0xbc9da35b	-0.019242933
194	0x3e06d65a	0.13167706
195	0xbdee4877	-0.11634915
196	0xbb1362fe	-0.0022489424
197	0x3e055d76	0.13023934
198	0x3bc8c6fe	0.0061272373
199	0x3dad84db	0.08472606
200	0xbe12932c	-0.14313954
201	0xbdfa8921	-0.122331865
202	0x3e1e69c6	0.15470037
203	0x3dac1429	0.08402283
204	0xbe0fadc8	-0.14031136
205	0x3da0ee7d	0.07857988
206	0xbe041404	-0.1289826
207	0xbe229b82	-0.15879634
208	0x3e0bba82	0.13645366
209	0xbda01823	-0.07817104
210	0x3df5f581	0.12009717
211	0x3e210208	0.15723431
212	0x3df6b90e	0.12047015
213	0x3deeec04	0.1166611
214	0x3dbfc3ff	0.09363555
215	0xbe21666e	-0.1576173
216	0x3dc253ad	0.09488616
217	0xbd9a354a	-0.07529695
218	0x3d8a6e6c	0.067593426
219	0x3e134ccc	0.14384764
220	0xbe14e839	-0.14541711
221	0x3e013254	0.12616855
222	0xbbff675a	-0.007794303
223	0x3dac51ec	0.08414063
224	0x3d86d304	0.06583217
225	0xbdea2036	-0.11431925
226	0xbd7efadd	-0.06225096
227	0x3d802a83	0.062581085
228	0x3e0e1946	0.13876829
229	0x3d40bd03	0.047055256
230	0x3da55443	0.08072712
231	0xbd52db51	-0.051478688
232	0xbddcf3a7	-0.107886605
233	0x3daeec77	0.08541196
234	0x3e21fa4e	0.1581814
235	0x3ca305f1	0.019900294
236	0xbe068ff4	-0.13140851
237	0xbd8a00b8	-0.06738418
238	0xbbd63f98	-0.0065383427
239	0x3d96e2ad	0.07367454
240	0xbcb94ff2	-0.022621129
241	0x3d1cbc6f	0.03826564
242	0x3d7095b5	0.05873652
243	0x37bb1dce	2.2306016e-05
244	0xbe0d1aea	-0.13779798
245	0xbdbb9c90	-0.09160721
246	0x3d862880	0.065506935
247	0xbdd26f79	-0.10275168
248	0x3d345eef	0.04403585
249	0xbc81dd4a	-0.01585259
250	0xbda07b9d	-0.07836077
251	0xbdd9524c	-0.106114
252	0xbda7d173	-0.08194246
253	0xbddaf641	-0.106915005
254	0x3dbe5e5f	0.092953436
255	0xbc1f733e	-0.009732066

0.bias f4 [128]
0	0xbe044a8f	-0.12919067
1	0x3dfdcdd2	0.12392773
2	0xbe220e3f	-0.15825747
3	0x3cc3f518	0.02392058
4	0x3ca0ae39	0.019614326
5	0x3cdb0b01	0.026738646
6	0xbb88decd	-0.0041769505
7	0xb90f7d7c	-0.0001368429
8	0xbd6c11a4	-0.05763401
9	0x3d578b99	0.052623365
10	0x3d386057	0.04501375
11	0x3d911c7f	0.07085513
12	0xbe0761d5	-0.13220914
13	0x3e18aca7	0.14909612
14	0xbde5eb7e	-0.11226557
15	0x3dd4d6a3	0.10392501
16	0x3d6fcece	0.058546834
17	0x3bda6cec	0.0066658165
18	0x3dc57835	0.09642068
19	0xbe0c320a	-0.13690963
20	0x3e092a54	0.13395053
21	0x3d55a1c6	0.052156232
22	0xbdb92584	-0.09040359
23	0x3d8706a1	0.06593061
24	0xbd1fe680	-0.03903818
25	0x3df4014d	0.119143106
26	0x3d14fa67	0.036371615
27	0x3db14df1	0.08657444
28	0xbe05121b	-0.12995188
29	0x3e0dd15b	0.13849394
30	0x3da381d6	0.079837486
31	0x3dd4ad5d	0.10384629
32	0xbe01adb2	-0.12663916
33	0xbddb8b52	-0.107199326
34	0xbe161771	-0.1465738
35	0xbd0b9918	-0.03408155
36	0x3c9bb3b4	0.019006588
37	0xbce0ff2c	-0.027465425
38	0xbd798fad	-0.060928036
39	0x3ca1704b	0.019706866
40	0x3d43c1b0	0.047792137
41	0x3b8e1a62	0.004336641
42	0x3dbfca9c	0.093648165
43	0x3d1b4ae8	0.037913233
44	0x3e0e6c89	0.1390859
45	0x3dac3cd1	0.08410037
46	0x3d37fa8e	0.044916682
47	0xbe0e8a58	-0.13919961
48	0xbe21b2fb	-0.15790932
49	0xbe110f1c	-0.1416592
50	0x3e2254b4	0.15852624
51	0x3e1c44d7	0.15260635
52	0xbd4b26e3	-0.049597632
53	0x3ce19237	0.027535541
54	0xbe167e61	-0.14696647
55	0xbe116d9f	-0.14201973
56	0xbd1e5d50	-0.03866321
57	0xbd361f98	-0.044463724
58	0x3c8febff	0.017568586
59	0xbaeed816	-0.0018222358
60	0xbe0e94ad	-0.13923903
61	0x3d0a34e5	0.03374185
62	0x3c739c15	0.014868756
63	0xbe0be6e1	-0.13662292
64	0xbdfbb2df	-0.12289976
65	0xbd9725dc	-0.07380268
66	0xba5942d1	-0.00082878495
67	0x3e219a60	0.15781546
68	0x3c871aa4	0.016492195
69	0xbdd03d02	-0.10167886
70	0x3d253d8a	0.04034189
71	0xbd993f52	-0.074827805
72	0xbdd366cf	-0.103223436
73	0xbe16a163	-0.14710002
74	0x3ddb9b6c	0.10723004
75	0x3e09a886	0.13443193
76	0x3d921502	0.07132913
77	0x3d304c3f	0.043041464
78	0xbe15f2db	-0.14643423
79	0x3e06b8c7	0.13156424
80	0xbd4bfcfc	-0.04980181
81	0xbe189c08	-0.14903271
82	0x3dcf5f33	0.1012558
83	0xbcb963a8	-0.022630528
84	0xbe149cda	-0.14512959
85	0x3cb2412e	0.021759596
86	0xbdde7327	-0.10861807
87	0xbdea070d	-0.11427126
88	0xbd8b721c	-0.06808874
89	0xbd950432	-0.07276191
90	0xbe0cb0af	-0.13739274
91	0xbde06a3c	-0.109577626
92	0x3d1d6b23	0.03843225
93	0xbe103196	-0.14081416
94	0xbcd13a83	-0.025540596
95	0xbda860ab	-0.08221563
96	0xbd958058	-0.0729987
97	0xbdb0c1e4	-0.08630732
98	0x3bb91940	0.005648762
99	0x3deb17d0	0.11479151
100	0x3cf8104f	0.030281214
101	0x3d98d027	0.07461577
102	0x3d5c431c	0.053774938
103	0xbe1d8804	-0.15383917
104	0x3d633d19	0.05547819
105	0x3dd5798f	0.10423576
106	0xbe0949a9	-0.13407005
107	0xbcfeef21	-0.031119885
108	0x39b283d4	0.00034049025
109	0xbe1298c0	-0.14316082
110	0xbe1a948e	-0.15095732
111	0x3e146a00	0.14493561
112	0x3d968aa6	0.07350664
113	0x3dccdbee	0.10002886
114	0x3dd6300c	0.10458383
115	0xbdaa1bd2	-0.083060876
116	0x3d36f953	0.044671368
117	0x3d83135c	0.06400177
118	0x3cff544c	0.031168126
119	0x3d8ee3c0	0.069770336
120	0x3c358449	0.0110789025
121	0x3e1065e0	0.14101362
122	0xbd91ae61	-0.07113338
123	0x3d2ebcfd	0.042660702
124	0x3c776923	0.01510075
125	0x3e01bb95	0.12669213
126	0x3dc3f701	0.09568597
127	0x3db6ee3f	0.089321606

2.weight f4 [128, 128]
0	0xbdad153d	-0.084513165
1	0x3bf0f357	0.007353227
2	0x3d4338ac	0.04766147
3	0xbdb367f6	-0.08760063
4	0xbd6a03d8	-0.057132572
5	0x3d80259b	0.06257173
6	0xbd79f069	-0.06102029
7	0xbd97f5cf	-0.07419931
8	0x3d350d07	0.044201877
9	0xbd1100a8	-0.035401016
10	0x3d97853a	0.07398458
11	0x3dac8e96	0.084256336
12	0x3d72fd3b	0.05932353
13	0x3d4026ef	0.04691213
14	0x3c4b4030	0.01240544
15	0xbbbeb9fa	-0.00582051
16	0xbce9f135	-0.0285574
17	0x3cb948fc	0.02261781
18	0xbd92a746	-0.07160811
19	0xbc7db294	-0.015484471
20	0x3d5a5c82	0.05331088
21	0xbd2d6ca4	-0.042339936
22	0x3c6c3fa3	0.014419469
23	0x3d5d27ed	0.053993154
24	0xbd7d8ad9	-0.061899994
25	0xbbcf78b6	-0.0063315285
26	0xbc27f5bf	-0.0102514615
27	0xbd6faa99	-0.058512304
28	0x3d94d94f	0.07268011
29	0x3d971da9	0.07378704
30	0xbd969ccd	-0.07354126
31	0xbd18147c	-0.03712891
32	0xbd8d14b9	-0.06888718
33	0xbd5a6b80	-0.053325176
34	0x3d55977a	0.052146412
35	0x3c043a5a	0.008070553
36	0x3d4425d9	0.047887657
37	0x3d7d06d9	0.06177411
38	0xbcf410a2	-0.029793087
39	0x3c57105b	0.013126458
40	0x3c660f20	0.014041692
41	0x3d782969	0.060586367
42	0xbd9887fe	-0.074478135
43	0xbcd2d95a	-0.025738407
44	0xbcd67cd6	-0.026182573
45	0x3c7e9ea8	0.015540756
46	0xbc26dc7c	-0.0101844035
47	0x3d0f1766	0.034934424
48	0x3cb9b597	0.022669597
49	0x3c2f0634	0.010682631
50	0xbccd9c4b	-0.02509894
51	0xbd926516	-0.07148187
52	0x3d8eb899	0.06968803
53	0xbd458225	-0.04821982
54	0x3cf8c314	0.030366458
55	0x3d304068	0.043030173
56	0x3d45939d	0.048236478
57	0xbd6d33da	-0.057910778
58	0xbd4c08f7	-0.049813237
59	0x3d890678	0.06690687
60	0xbda3d530	-0.07999647
61	0x3cea6070	0.028610438
62	0xbc88973e	-0.01667368
63	0x3cb8ddb6	0.022566658
64	0xbdb147f4	-0.08656302
65	0xbc9370e8	-0.017998174
66	0xbcec6fa5	-0.02886183
67	0xbd2cba12	-0.042169638
68	0xbbad2c27	-0.0052848044
69	0xbd06ee8b	-0.032942336
70	0xbc409556	-0.011754354
71	0xbb68b677	-0.0035509148
72	0x3ca80faa	0.020515282
73	0x3d3d4792	0.046210833
74	0x3b8c7dad	0.0042874427
75	0x3daad4d8	0.08341378
76	0x3d3d33dd	0.04619204
77	0x3b3ffe4f	0.0029295867
78	0xbd89463f	-0.067028515
79	0x3c14f090	0.009090558
80	0x3d19c171	0.037537996
81	0x3db3d6c8	0.08781201
82	0xb9251014	-0.00015741616
83	0x3d98d571	0.07462586
84	0x3d38b119	0.04509077
85	0x3c6d67e1	0.014490099
86	0x3da209f8	0.07912058
87	0x3cfff3b8	0.031244144
88	0xbae4d1b9	-0.0017457522
89	0xbd68e07a	-0.056854703
90	0x3cba8d07	0.022772325
91	0xbd593aad	-0.053034473
92	0xbd874fe7	-0.06607037
93	0xbd7e3498	-0.062061876
94	0x3d76fa0e	0.060297064
95	0x3d5c7f53	0.053832363
96	0x3cc0ac65	0.023519704
97	0xbd2b9d8c	-0.041898295
98	0xbc7175e4	-0.01473758
99	0x3cf77179	0.030205475
100	0xbd95c698	-0.073132694
101	0x3dabe884	0.08393958
102	0x3d2dd2d7	0.0424374
103	0xbc5a3f2f	-0.013320728
104	0x3d88c59f	0.06678318
105	0x3d66d479	0.056354973
106	0x3da616f6	0.08109848
107	0xbd9d39de	-0.07677053
108	0x3d7a727c	0.061144337
109	0x3d543ed3	0.051817726
110	0x3d8c60c0	0.06854391
111	0xbd2359d0	-0.039880574
112	0x3d74c782	0.059760578
113	0x3d7a95af	0.061177906
114	0x3d4dcf79	0.05024669
115	0xbc3b655b	-0.011437739
116	0xbd78de7a	-0.060759045
117	0xbd5719d8	-0.05251488
118	0xbc413db6	-0.011794498
119	0x3d1e40b8	0.03863594
120	0xbc82e47c	-0.01597809
121	0xbd1b71b7	-0.037950244
122	0x3d0f7a74	0.03502889
123	0x3da480b0	0.08032358
124	0xbd8edc5f	-0.06975626
125	0x3d885c6f	0.06658255
126	0xbd0fc7bb	-0.035102587
127	0x3d39831b	0.045291048
128	0x3d9229c0	0.071368694
129	0x3d80bb85	0.062857665
130	0x3c77b9f8	0.015120022
131	0x3d92b2f3	0.07163038
132	0x3c5b15f7	0.013371936
133	0xbc06df68	-0.008231975
134	0x3a8dc283	0.0010815415
135	0x3d7b7faf	0.061401065
136	0xbd551d70	-0.052030027
137	0x3ce6c5b4	0.028170444
138	0xbce2ab3c	-0.027669542
139	0x3d868be6	0.06569652
140	0xbccd8643	-0.025088435
141	0x3daab1ba	0.0833468
142	0xbdb519ac	-0.08842787
143	0xbd7c2df1	-0.06156725
144	0xbbeaf01a	-0.0071697356
145	0xbcb26541	-0.021776797
146	0xbcd3ed4e	-0.025869992
147	0x3db3b188	0.08774096
148	0x3d7800ac	0.060547516
149	0xbc97017f	-0.01843333
150	0xbd0af0a5	-0.033920903
151	0x3d974d79	0.073878236
152	0xbd1f888d	-0.038948584
153	0x3d16210f	0.03665262
154	0xbd9a150a	-0.07523544
155	0x3c3fe65b	0.011712636
156	0x3d8767e1	0.0661161
157	0xbd87ea53	-0.06636491
158	0xbdab786d	-0.08372579
159	0x3d389ad5	0.045069534
160	0x3d19e341	0.03757024
161	0x3d958920	0.07301545
162	0x3d8f0429	0.06983215
163	0xbd9815e3	-0.074260496
164	0x3c5afbbf	0.013365685
165	0xbced2856	-0.028949898
166	0xbd80f3a2	-0.06296469
167	0x3d123bfc	0.035701737
168	0x3cad31f4	0.021141984
169	0x3d7a1d87	0.061063316
170	0xbba1c4d6	-0.0049367948
171	0xbcd699a5	-0.02619631
172	0x3d86e7a6	0.06587152
173	0x3da617ca	0.08110006
174	0xbd5ef152	-0.05442936
175	0x3c15559e	0.009114651
176	0x3dab6095	0.08368031
177	0x3d3b6a9e	0.045755975
178	0xbbc1cb79	-0.0059141484
179	0xbbad1c4b	-0.005282914
180	0x3d8398b5	0.06425611
181	0x3cf10ceb	0.029425105
182	0xbc95a690	-0.0182679
183	0xbd078196	-0.033082567
184	0xbd90d240	-0.07071352
185	0xbda3b5cd	-0.0799366
186	0xbccdeeb8	-0.025138244
187	0x3d693f8f	0.05694538
188	0x3d580467	0.052738573
189	0x3c818738	0.015811548
190	0xbacb66c6	-0.00155183
191	0x3c103ad1	0.008803085
192	0x3d2d297c	0.04227589
193	0xb9e0f6c7	-0.00042908473
194	0x3cd2c3cf	0.025728134
195	0xbd832d12	-0.06405081
196	0xbd733369	-0.0593752
197	0x3d81128c	0.06302366
198	0x3ccced6b	0.025015553
199	0xbb759f5e	-0.0037479023
200	0xbd9ad9e1	-0.07561088
201	0x3dad19fa	0.0845222
202	0x3bde65c8	0.0067870356
203	0xbd7ffa9b	-0.062494855
204	0xbd605164	-0.05476512
205	0x3d9f5aa0	0.07780957
206	0xbc857d60	-0.016295135
207	0xbd87e587	-0.06635576
208	0xbce3a8b0	-0.027790397
209	0x3d668a9c	0.056284532
210	0x3d987615	0.07444397
211	0xbd7171fd	-0.0589466
212	0xbda8a368	-0.08234292
213	0xbd60675d	-0.054786075
214	0xbd7eaa9c	-0.062174425
215	0xbd72e0d2	-0.059296437
216	0x3daece93	0.08535495
217	0x3db6c76d	0.08924756
218	0xbbb8c521	-0.005638734
219	0x3d72c693	0.059271406
220	0xbdad9f1f	-0.084776156
221	0x3ca48360	0.020082176
222	0x3d86e89f	0.06587338
223	0x3cca01f4	0.024659134
224	0xbdae3c8c	-0.08507642
225	0xbd825d20	-0.063654184
226	0xbc430253	-0.01190241
227	0xbcb4b609	-0.022059457
228	0xbd85ff78	-0.065428674
229	0xbbfa9f21	-0.007648364
230	0x3c8980db	0.016785076
231	0x3d833d34	0.06408158
232	0x3da05ef1	0.07830609
233	0xbd37d6f0	-0.044882715
234	0x3d7cb79d	0.061698545
235	0x3db0c22b	0.086307846
236	0x3d85a536	0.06525652
237	0xbd9dae1f	-0.076992266
238	0xbd2b6e84	-0.041853443
239	0x3c0ba675	0.008523573
240	0x3d48fe09	0.04907039
241	0x3c7c15a0	0.015386015
242	0x3db609da	0.08888598
243	0x3d667feb	0.056274336
244	0xbda3aa0e	-0.0799142
245	0x3d9844cc	0.07434997
246	0xbbb6c400	-0.0055775642
247	0xbd83cefc	-0.064359635
248	0xbda14587	-0.078745894
249	0x3d47c772	0.04877419
250	0x3d0fb43a	0.035083987
251	0x3d188e15	0.037244875
252	0xbcb07614	-0.021540679
253	0x3bd18cc8	0.0063949563
254	0xbda83ca3	-0.082146905
255	0x3cdd6246	0.0270244

2.bias f4 [128]
0	0xbdb15512	-0.08658804
1	0x3c4bee7d	0.012446997
2	0x3c2bf265	0.010494803
3	0x3d925a42	0.071461216
4	0xbc80a65d	-0.015704328
5	0xbd5e74f5	-0.054310758
6	0x3d335117	0.043778505
7	0xbd3a0002	-0.045410164
8	0xbc327e36	-0.010894349
9	0x3d6dc7d1	0.058051888
10	0xbd868b81	-0.06569577
11	0xbd80f359	-0.06296415
12	0x3d20e602	0.039281853
13	0x3d78aa54	0.060709313
14	0x3c4fe73d	0.012689409
15	0x3d8489f5	0.06471626
16	0xbdb47015	-0.088104405
17	0xbc197834	-0.009367038
18	0xbc5384de	-0.012910096
19	0x3db1608d	0.08660994
20	0xbd425e37	-0.04745313
21	0x3d09fb2e	0.03368681
22	0xbd82ebe0	-0.06392646
23	0xbd8e41a2	-0.06946112
24	0xbd410b5a	-0.047129966
25	0x3d9a2b9c	0.07527849
26	0xbd55c24d	-0.052187253
27	0xbb854c77	-0.004067953
28	0xbc45c0da	-0.012069905
29	0x3b6c5208	0.0036059637
30	0x3bb48aa2	0.0055096904
31	0xbd79a53c	-0.060948595
32	0xbd9774c1	-0.07395316
33	0xbd9ae0ef	-0.07562434
34	0x3cb78a19	0.022404717
35	0xbd860e5b	-0.06545707
36	0x3c45d1a9	0.012073913
37	0x3c6f00c3	0.014587584
38	0xba88e134	-0.0010443092
39	0xbcf32ccd	-0.029684449
40	0x3d02275f	0.03177583
41	0x3d32b477	0.043629136
42	0x3bcc0492	0.0062261308
43	0x3d1074c2	0.0352676
44	0xbcc8eda7	-0.024527384
45	0xbd725586	-0.059163593
46	0xbcae76d9	-0.021296905
47	0xbd9d837e	-0.07691096
48	0xbc675b25	-0.014120852
49	0xbca9ac48	-0.020712033
50	0x3c9551d9	0.018227505
51	0x3c3a433c	0.011368569
52	0x3d8405e1	0.06446434
53	0x3bf702a1	0.007538155
54	0x3d08a423	0.033359658
55	0xbd171ae4	-0.03689088
56	0x3d1cbd3f	0.038266417
57	0xbccc95e0	-0.02497381
58	0xbd87132e	-0.06595455
59	0x3da5a7aa	0.0808862
60	0x3d6be592	0.057591982
61	0xbcc155b4	-0.023600437
62	0x3d60bafd	0.054865826
63	0xbd8058a8	-0.0626691
64	0x3d7e0fae	0.062026672
65	0xbd439da0	-0.047757745
66	0x3c8e3e47	0.01736368
67	0xbc6b19bb	-0.014349396
68	0xbd2684d0	-0.040654004
69	0xbd831dca	-0.06402166
70	0xbd1e467c	-0.038641438
71	0x3cc6b031	0.024253936
72	0xbd6fd200	-0.05854988
73	0x3d2c103d	0.042007674
74	0x3d8c8849	0.06861932
75	0xbda9d96c	-0.08293423
76	0x3d9c6e7d	0.076382615
77	0x3ce42386	0.02784897
78	0x3d154781	0.036445145
79	0x3da0d58c	0.07853231
80	0x3d94882f	0.072525375
81	0xbb17f80d	-0.0023188621
82	0x3da51110	0.08059895
83	0x3d6562f8	0.056002587
84	0xbda39dfa	-0.07989116
85	0xbd44307a	-0.047897793
86	0xbca1f52a	-0.019770224
87	0xbc41713c	-0.011806782
88	0x3c509dda	0.012732947
89	0x3d4536b3	0.04814787
90	0xbd3e7202	-0.046495445
91	0xbd94fa5a	-0.07274313
92	0xbd9500e9	-0.07275564
93	0x3da2bf42	0.07946636
94	0x3cdb0ef9	0.026740538
95	0xbd302574	-0.043004468
96	0x3a8bcfab	0.0010666748
97	0x3d22397b	0.0396056
98	0xbda176f0	-0.07884014
99	0xbd8b6d16	-0.06807916
100	0x3cf80ec5	0.03028048
101	0x3dab9b96	0.08379285
102	0xbc8fda2e	-0.01756009
103	0x3da27613	0.07932677
104	0x3cb2677b	0.021777859
105	0xbda52cca	-0.080651835
106	0xbc48af34	-0.012248803
107	0xbc2d4503	-0.010575536
108	0xbd533013	-0.05155952
109	0x3d495293	0.049151015
110	0xbc000ea9	-0.007815995
111	0x3cf63da6	0.030058693
112	0x3d80ac22	0.06282832
113	0x3d9c1896	0.07621877
114	0x3d79d74b	0.060996335
115	0xbd9b2f11	-0.075773366
116	0xbda57bf5	-0.080802836
117	0xbbad9ccf	-0.005298234
118	0xbd72abac	-0.05924575
119	0x3cd25e93	0.025679862
120	0x3da73bbc	0.0816569
121	0xbda82e3e	-0.08211945
122	0x3d353495	0.0442396
123	0xbd04bf4a	-0.03240899
124	0xbcaccfcb	-0.021095177
125	0x3d8cd9c6	0.068774745
126	0xbd8c860f	-0.06861507
127	0xbcaf47f5	-0.021396616

4.weight f4 [1, 128]
0	0xbd8aa18c	-0.06769094
1	0x3d9bb04c	0.07601985
2	0xbd5e7b14	-0.054316595
3	0x3da7728f	0.08176147
4	0xbc222ba3	-0.009898099
5	0x3d628ee2	0.055312045
6	0x3d57e140	0.05270505
7	0x3cd64909	0.026157873
8	0x3b2ba98d	0.002619359
9	0xbdb52e5e	-0.088467345
10	0xbdac6a1b	-0.084186755
11	0xbcfcb982	-0.030850176
12	0x3d59f6f3	0.053214025
13	0x3da6fe68	0.08153993
14	0xba95d5f5	-0.0011431562
15	0xbcfe2bae	-0.031026687
16	0xbcc54238	-0.024079427
17	0x3db09ca8	0.0862363
18	0x3d8bc4ba	0.06824632
19	0x3d94eb28	0.07271415
20	0x3daef203	0.08542254
21	0xbd90f156	-0.07077281
22	0xbbda5b9e	-0.0066637537
23	0x3d8cf10a	0.06881912
24	0xbcc405b4	-0.0239285
25	0xbd592829	-0.053016815
26	0xbca72f5a	-0.020408321
27	0x3da6036b	0.08106121
28	0xbda11746	-0.07865767
29	0xbc627fab	-0.013824384
30	0x3ad8df52	0.0016546047
31	0x3db11f4f	0.0864855
32	0xbd8fb498	-0.070168674
33	0xbd249e66	-0.040190123
34	0xbacf4ed2	-0.0015816337
35	0x3da487fc	0.080337495
36	0x3d912d01	0.07088662
37	0x3bf86475	0.007580335
38	0x3d9e36ae	0.07725273
39	0x3cbc4cc4	0.022985823
40	0x3d9292dc	0.071569175
41	0xbd33ed69	-0.043927584
42	0x3d7ee063	0.06222571
43	0x3d80fc0e	0.062980756
44	0xbd035a8d	-0.032068778
45	0x3b85074d	0.004059708
46	0x3d553fa8	0.05206266
47	0xbda708ff	-0.08156013
48	0x3d5bb246	0.05363681
49	0xbc90a97e	-0.017658945
50	0x3c67ab0a	0.0141399
51	0xbcea5126	-0.028603148
52	0x3d64ee18	0.055891126
53	0xbd94e693	-0.07270541
54	0x3db5a35e	0.088690504
55	0x3d5e9caf	0.054348644
56	0x3dae4208	0.08508688
57	0x3da9c2ae	0.08289085
58	0x3d837149	0.06418092
59	0xb8bf46db	-9.1207876e-05
60	0xbd2c3297	-0.042040434
61	0xbc9a3833	-0.018825626
62	0xbd812c02	-0.06307222
63	0x3da21d7f	0.07915782
64	0x3da7e984	0.081988364
65	0xbceaa7c8	-0.028644457
66	0x3d560885	0.05225422
67	0x3cbc2906	0.02296878
68	0xbce2e679	-0.027697789
69	0xbcc716a2	-0.024302784
70	0xbc1adab3	-0.009451556
71	0xbd888cf1	-0.066675074
72	0x3d932abb	0.071858846
73	0xbd8325b8	-0.06403679
74	0xbd03b34a	-0.032153405
75	0xbd17b6fa	-0.037039734
76	0xbdac0a07	-0.0840035
77	0xbd3f2e2f	-0.046674903
78	0xbd7eeb63	-0.0622362
79	0x3cca1d2b	0.024672111
80	0x3d131358	0.03590712
81	0x3d2ad7cd	0.04170971
82	0x3d81aebd	0.06332157
83	0x3da244f1	0.07923306
84	0xbd78a468	-0.060703665
85	0x3c866977	0.016407711
86	0x3c90e157	0.017685575
87	0xbdb61c43	-0.08892109
88	0xbacd6d76	-0.0015672881
89	0x3c0f8bcf	0.00876136
90	0x3c859be5	0.016309688
91	0x3d81c65c	0.06336662
92	0xbd3e7d81	-0.04650641
93	0x3d49ef84	0.049300686
94	0xbbc3b815	-0.005972872
95	0x3c320c63	0.010867211
96	0x3d8dfa9d	0.06932566
97	0xbc783302	-0.01514888
98	0xbd9cd162	-0.07657124
99	0xbcf12854	-0.029438175
100	0x3db6441b	0.08899709
101	0xbda0f677	-0.078595094
102	0xbce1c61a	-0.027560282
103	0x3d07c142	0.03314329
104	0x3d067a45	0.03283145
105	0x3d601245	0.054704923
106	0xbcaa447c	-0.020784609
107	0x3d6daa72	0.058023877
108	0x3d6b8c38	0.05750677
109	0x3d36209f	0.044464704
110	0xbc5f81ed	-0.013641817
111	0xbcd94140	-0.026520371
112	0xbd42d0ae	-0.047562294
113	0x3d81f7e2	0.06346108
114	0xbcec1958	-0.028820679
115	0xbd0882a1	-0.033327702
116	0x3cdc4088	0.02688624
117	0x3d33a856	0.04386171
118	0xbda5d115	-0.0809652
119	0x3c5a1aa6	0.013312018
120	0xbda4757b	-0.0803022
121	0x3d8a9640	0.06766939
122	0x3d1b9fc3	0.037994158
123	0x3d0715a9	0.03297964
124	0xbd01f72b	-0.03172986
125	0x3d67ba99	0.056574438
126	0xbcf0a38e	-0.029374864
127	0x3d28198d	0.041039992
