savedModel/model_aug-rain.pt (torch_old, 88072 bytes, 5 tensors)

0.weight f4 [128, 39]
0	0xbd24f436	-0.04027196
1	0xbe1da495	-0.15394814
2	0xbd894234	-0.0670208
3	0xbd29f8ef	-0.041497167
4	0x3d2e05c0	0.042485952
5	0x3c223478	0.009900205
6	0x3bda24a4	0.0066572
7	0xbe07ddf2	-0.13268259
8	0x3bd42569	0.006474186
9	0x3cae530b	0.021279832
10	0x3d9d5775	0.07682697
11	0xbe0565f0	-0.13027167
12	0x3e03782d	0.12838812
13	0x3de7631f	0.11298203
14	0xbddedc50	-0.10881865
15	0x3dd61185	0.1045256
16	0x3d015474	0.03157468
17	0x3e116370	0.14198089
18	0xbd440b5e	-0.047862403
19	0x3da270a3	0.0793164
20	0xbd0207a0	-0.031745553
21	0xbd479d94	-0.048734263
22	0xbcb9b068	-0.022667125
23	0xbc80ecad	-0.015737856
24	0xbd421b86	-0.04738953
25	0x3d6fec0d	0.058574725
26	0x3d025025	0.031814713
27	0x3d375e18	0.04476747
28	0xbde3e4e2	-0.1112764
29	0xbd0f65b5	-0.035009105
30	0x3d255b03	0.04037
31	0xbe04a609	-0.12953962
32	0xbda082d8	-0.078374565
33	0x3e08cf0c	0.13360232
34	0xbe07f820	-0.13278246
35	0xbd576ce1	-0.05259407
36	0xbe0e6153	-0.13904314
37	0xbdfc8fc0	-0.12332106
38	0x3d512ca1	0.051067952
39	0xba927ee2	-0.001117673
40	0x3ca5a533	0.020220375
41	0xbc972348	-0.01844944
42	0xbdf86c6f	-0.12130057
43	0x3df9b1ce	0.12192117
44	0xbd9d1d98	-0.0767166
45	0xbd352795	-0.0442272
46	0xbe205a40	-0.15659428
47	0xbdaf030c	-0.08545503
48	0xbe0a7eef	-0.13524984
49	0x3cf9c167	0.03048773
50	0x3d425a62	0.047449477
51	0xbca08f3d	-0.019599551
52	0xbb429787	-0.0029692368
53	0xbd48578a	-0.04891161
54	0x3e089516	0.13338122
55	0xbe1aa4d4	-0.1510194
56	0x3e0ae15e	0.13562533
57	0x3db8cf72	0.09023942
58	0xbe182e8f	-0.1486151
59	0x3e107e28	0.14110625
60	0x3e172f46	0.14764127
61	0x3d658bdc	0.056041583
62	0x3de447a0	0.11146474
63	0x3cc96ad3	0.02458707
64	0xbe13f786	-0.14449891
65	0xbe08413d	-0.13306136
66	0x3df71ed8	0.1206643
67	0xbc934fbe	-0.01798236
68	0xbe1ce20d	-0.15320607
69	0xbe0a7c4f	-0.13523982
70	0x3cc05bea	0.023481328
71	0x3da5200d	0.08062754
72	0x3ab707b5	0.0013964089
73	0xbd30d7b0	-0.043174446
74	0x3c71d730	0.014760777
75	0xbda6d6c2	-0.081464306
76	0xbdd774d2	-0.105203286
77	0xbe14e991	-0.14542224
78	0xb9d83ead	-0.00041245428
79	0xbe15303e	-0.14569184
80	0x3e032f3d	0.12810989
81	0x3e01d5d8	0.12679231
82	0xbd29a322	-0.04141534
83	0x3e0e3084	0.13885695
84	0x3e1b3edc	0.15160698
85	0x3e085683	0.13314252
86	0xbc8e7b48	-0.01739277
87	0xbbd756da	-0.006571633
88	0x3dca83a0	0.09888387
89	0x3cca456b	0.024691304
90	0xbd0a0226	-0.033693455
91	0x3dd29e31	0.10284079
92	0x3d160808	0.036628753
93	0xbdf61de7	-0.12017422
94	0x3d8147ce	0.06312524
95	0x3d726253	0.0591758
96	0x3dff93af	0.1247934
97	0x3d467d27	0.0484592
98	0xbd36bff4	-0.044616655
99	0xbdc6afec	-0.09701523
100	0xbce95837	-0.028484447
101	0xbd2a3871	-0.041557733
102	0xbe02a381	-0.12757684
103	0xbc374eda	-0.011188233
104	0xbdb1eef3	-0.08688154
105	0x3d65b76e	0.056083135
106	0xbde102fb	-0.109868966
107	0xbcd33016	-0.025779765
108	0xbcc1d52a	-0.023661215
109	0xbe1734a4	-0.14766175
110	0x3da30f4c	0.07961902
111	0x3d87cc15	0.066307224
112	0x3e1db5e3	0.15401416
113	0xbda34c2d	-0.07973514
114	0xbd40a98a	-0.047036685
115	0x3db3a5c9	0.087718554
116	0xbdb65cc3	-0.08904412
117	0x3dd74d80	0.10512829
118	0x3d38ac15	0.045085985
119	0x3c98d0de	0.018654283
120	0xbd897ba2	-0.06713034
121	0x3dec238e	0.11530219
122	0x3dfa1eb7	0.1221289
123	0x3e190a0a	0.14945236
124	0xbc0aea14	-0.00847866
125	0xbd4dacdc	-0.05021368
126	0x3d93cfe1	0.07217384
127	0xbadd2743	-0.0016872663
128	0xbe03c61b	-0.1286854
129	0x3b7785b3	0.00377689
130	0x3d37c360	0.04486406
131	0x3dedc480	0.11609745
132	0xbe0d4312	-0.13795117
133	0x3df7e19c	0.121035784
134	0x3be60359	0.007019442
135	0x3c0bf3da	0.008542025
136	0x3dd5921f	0.10428261
137	0x3df89458	0.12137669
138	0x3cfe8570	0.031069487
139	0xbdd18240	-0.10229921
140	0x3e14b512	0.14522198
141	0xbdaa41dc	-0.08313343
142	0x3e09599b	0.13413088
143	0x3dc56536	0.09638445
144	0x3e17a8cd	0.14810486
145	0xbd372793	-0.044715475
146	0xbd980e07	-0.074245505
147	0x3daf4a65	0.085591115
148	0x3ccf92d6	0.025338572
149	0x3d83deee	0.06439005
150	0xbdbcc2cc	-0.09216842
151	0x3deec478	0.11658567
152	0xbdf56997	-0.1198303
153	0xbdf616b0	-0.12016046
154	0x3e035db3	0.12828712
155	0xbd4d3673	-0.050100755
156	0x3dd1c20c	0.1024209
157	0x3d810179	0.06299109
158	0x3da237ea	0.07920821
159	0x3e1278bc	0.14303869
160	0x3d3cd9be	0.046106093
161	0xbe10dce1	-0.14146759
162	0xbd168815	-0.03675087
163	0x3e05660b	0.13027208
164	0xbe14d66a	-0.14534917
165	0xbbac7b8e	-0.0052637523
166	0x3dc781e9	0.09741575
167	0x3d382496	0.044956766
168	0x3e0fd73c	0.14046949
169	0x3b8365d3	0.004009941
170	0x3d19b651	0.037527386
171	0x3e101e28	0.14074004
172	0x3dc6b190	0.09701836
173	0x3b54b6f7	0.0032457688
174	0x3d47d89d	0.048790563
175	0xbdbce563	-0.092234395
176	0xbd8ac651	-0.06776107
177	0x3d4abe99	0.049498174
178	0x3e1eb42a	0.15498415
179	0xbd4f931e	-0.05067741
180	0x3d15700a	0.036483802
181	0xbe20c45f	-0.1569991
182	0x3d9ee0b6	0.07757704
183	0x3e105235	0.1409386
184	0xbd243172	-0.040086217
185	0xbd213a32	-0.03936214
186	0x3ca5b5c8	0.020228282
187	0x3e1f5522	0.1555982
188	0x3e0b29e0	0.13590193
189	0x3dab8cd9	0.08376474
190	0xbbd3426f	-0.0064471285
191	0x3e130b0b	0.14359681
192	0xbe04d12e	-0.1297042
193	0xbc9de8b0	-0.019275993
194	0x3e06d84e	0.13168451
195	0xbdee4df5	-0.11635963
196	0xbb134d08	-0.0022476334
197	0x3e05596b	0.13022391
198	0x3bc817bd	0.0061063454
199	0x3dad7a20	0.08470559
200	0xbe12932c	-0.14313954
201	0xbdfa8448	-0.12232262
202	0x3e1e63ea	0.15467802
203	0x3dac0c59	0.08400793
204	0xbe0fa8a2	-0.14029172
205	0x3da0e455	0.07856051
206	0xbe0423a4	-0.12904221
207	0xbe22a15e	-0.15881869
208	0x3e0bb723	0.1364408
209	0xbda01ea1	-0.07818342
210	0x3df5f38d	0.12009344
211	0x3e20fa38	0.15720451
212	0x3df6aa53	0.120442055
213	0x3deee434	0.1166462
214	0x3dbfba00	0.093616486
215	0xbe216862	-0.15762475
216	0x3dc24847	0.09486442
217	0xbd9a3f7a	-0.075316384
218	0x3d8a5f1e	0.067564234
219	0x3e134972	0.14383486
220	0xbe14eafd	-0.14542766
221	0x3e013060	0.1261611
222	0xbbff86c2	-0.007798047
223	0x3dac4d23	0.0841315
224	0x3d86c170	0.06579864
225	0xbdea2d81	-0.114344604
226	0xbd7f035b	-0.06225906
227	0x3d802a83	0.062581085
228	0x3e0e155e	0.13875338
229	0x3d40ae72	0.047041364
230	0x3da55637	0.08073085
231	0xbd52f06f	-0.051498827
232	0xbddd0376	-0.10791676
233	0x3daee6c6	0.0854011
234	0x3e221b67	0.15830766
235	0x3ca394f8	0.019968495
236	0xbe068654	-0.1313718
237	0xbd89b52c	-0.06724009
238	0xbbd417a2	-0.006472544
239	0x3d971bb7	0.07378333
240	0xbcb88b20	-0.022527277
241	0x3d1cac28	0.03825012
242	0x3d70d9fd	0.05880164
243	0x391591df	0.00014264089
244	0xbe0cf803	-0.13766484
245	0xbdbb79b1	-0.0915407
246	0x3d8636ae	0.06553398
247	0xbdd23978	-0.102648675
248	0x3d34b30f	0.044116076
249	0xbc817591	-0.01580313
250	0xbda05d8e	-0.07830344
251	0xbdd92782	-0.10603239
252	0xbda7b46e	-0.08188711
253	0xbddb077a	-0.106947854
254	0x3dbe7c94	0.09301105
255	0xbc1f7264	-0.009731863

0.bias f4 [128]
0	0xbe044bd8	-0.12919557
1	0x3dfe58f6	0.12419312
2	0xbe220863	-0.15823512
3	0x3cc42587	0.023943676
4	0x3c9fa42a	0.01948746
5	0x3cda95de	0.02668279
6	0xbb912bfb	-0.0044302917
7	0xb8d97111	-0.000103684266
8	0xbd6c0466	-0.057621382
9	0x3d575140	0.05256772
10	0x3d37d8ac	0.04488437
11	0x3d915707	0.07096677
12	0xbe0775bc	-0.13228506
13	0x3e18a038	0.14904869
14	0xbde5ed16	-0.11226861
15	0x3dd481fe	0.103763565
16	0x3d70b35d	0.058764804
17	0x3bde6449	0.0067868573
18	0x3dc5a9af	0.09651505
19	0xbe0c438f	-0.13697647
20	0x3e0918f3	0.13388424
21	0x3d5633c3	0.052295458
22	0xbdb8d045	-0.09024099
23	0x3d873b40	0.06603098
24	0xbd204b3d	-0.039134253
25	0x3df3ff64	0.11913946
26	0x3d1447ed	0.036201406
27	0x3db14341	0.08655406
28	0xbe050e42	-0.1299372
29	0x3e0db98a	0.13840309
30	0x3da30d5c	0.079615325
31	0x3dd4da7e	0.103932366
32	0xbe01a7d6	-0.1266168
33	0xbddb8429	-0.10718567
34	0xbe161195	-0.14655145
35	0xbd0b49be	-0.034005873
36	0x3c9b5e22	0.018965784
37	0xbcdf6bee	-0.027273145
38	0xbd7951b6	-0.06086894
39	0x3ca19b32	0.019727323
40	0x3d444620	0.04791844
41	0x3b8bb64e	0.004263676
42	0x3dbfa8a9	0.09358341
43	0x3d1bc4b2	0.03802938
44	0x3e0e65f4	0.1390608
45	0x3dac4aff	0.08412742
46	0x3d3881c0	0.045045614
47	0xbe0e7f78	-0.13915813
48	0xbe21b746	-0.1579257
49	0xbe1119fb	-0.14170067
50	0x3e224403	0.15846257
51	0x3e1c1858	0.15243661
52	0xbd4a9859	-0.049461696
53	0x3ce14d72	0.02750275
54	0xbe16846a	-0.1469895
55	0xbe11a61e	-0.14223525
56	0xbd1e3e5e	-0.038633697
57	0xbd3608f5	-0.044442136
58	0x3c902e06	0.01760007
59	0xbae6f066	-0.0017619252
60	0xbe0e82b5	-0.13917048
61	0x3d0a86cd	0.033819962
62	0x3c74d609	0.014943608
63	0xbe0befc8	-0.13665688
64	0xbdfb9fce	-0.1228634
65	0xbd96d021	-0.07363916
66	0xba5da341	-0.00084548077
67	0x3e2130ed	0.1574132
68	0x3c8646df	0.016391216
69	0xbdd05c42	-0.10173847
70	0x3d25cbaa	0.040477432
71	0xbd993616	-0.07481019
72	0xbdd379ed	-0.1032599
73	0xbe169ab9	-0.1470746
74	0x3ddb39fe	0.107044205
75	0x3e097a81	0.13425638
76	0x3d924726	0.07142477
77	0x3d305c87	0.04305699
78	0xbe160b29	-0.14652695
79	0x3e06b281	0.13154031
80	0xbd4c1086	-0.049820445
81	0xbe18b538	-0.1491288
82	0x3dcf2848	0.10115105
83	0xbcb7f6cc	-0.02245655
84	0xbe149ece	-0.14513704
85	0x3cafdd5b	0.021467855
86	0xbddde062	-0.10833813
87	0xbde9fed9	-0.114255615
88	0xbd8bcde3	-0.06826379
89	0xbd951f0e	-0.07281314
90	0xbe0ca10f	-0.13733314
91	0xbde08e5d	-0.10964654
92	0x3d1b9937	0.037987914
93	0xbe106743	-0.14101891
94	0xbcd2f168	-0.025749877
95	0xbda8a812	-0.08235182
96	0xbd960075	-0.07324306
97	0xbdb0c40f	-0.08631145
98	0x3bb3e141	0.005489499
99	0x3dea800e	0.11450206
100	0x3cf7e69e	0.030261334
101	0x3d98ed26	0.074671075
102	0x3d5c7664	0.053823844
103	0xbe1d8df7	-0.15386187
104	0x3d62e1c6	0.055391096
105	0x3dd55918	0.10417384
106	0xbe094b9d	-0.1340775
107	0xbcff921c	-0.0311976
108	0x39956b2d	0.00028499347
109	0xbe12a20b	-0.14319627
110	0xbe1aa42e	-0.15101692
111	0x3e144240	0.14478397
112	0x3d96842c	0.073494285
113	0x3dcc9087	0.09988504
114	0x3dd61ab3	0.10454311
115	0xbdaa3ef5	-0.08312789
116	0x3d35caa2	0.0443827
117	0x3d830c06	0.06398778
118	0x3cfe91ba	0.031075347
119	0x3d8f6185	0.07001022
120	0x3c33096b	0.010927538
121	0x3e1010fc	0.14068979
122	0xbd921f43	-0.07134869
123	0x3d2ea260	0.04263532
124	0x3c799f10	0.015235677
125	0x3e0210ac	0.12701672
126	0x3dc3cf30	0.09561002
127	0x3db71fd1	0.089416154

2.weight f4 [128, 128]
0	0xbdad087b	-0.08448883
1	0x3bf63151	0.007513203
2	0x3d433064	0.04765357
3	0xbdb36c7d	-0.08760927
4	0xbd6a09ed	-0.057138372
5	0x3d802d6b	0.06258663
6	0xbd79d911	-0.060998026
7	0xbd97de7b	-0.07415482
8	0x3d350464	0.04419364
9	0xbd10ea83	-0.035379898
10	0x3d97b61a	0.0740778
11	0x3dacde37	0.084408216
12	0x3d730317	0.05932912
13	0x3d401f1f	0.04690468
14	0x3c4c0f05	0.012454753
15	0xbbbdd5a6	-0.005793291
16	0xbce8e547	-0.02842964
17	0x3cb97a73	0.022641396
18	0xbd92a35e	-0.07160066
19	0xbc7cb0ab	-0.01542298
20	0x3d5a6ba5	0.053325314
21	0xbd2d7522	-0.042348035
22	0x3c6f58b8	0.014608555
23	0x3d5d4c95	0.054028112
24	0xbd7d9faf	-0.061919864
25	0xbbca8075	-0.006179864
26	0xbc275415	-0.010212918
27	0xbd6faa99	-0.058512304
28	0x3d94e086	0.07269387
29	0x3d973366	0.0738285
30	0xbd96727b	-0.07346054
31	0xbd17ae1e	-0.037031285
32	0xbd8d1bdb	-0.06890079
33	0xbd5a7611	-0.053335253
34	0x3d5586f4	0.052130654
35	0x3c0534b2	0.008130239
36	0x3d445860	0.047935843
37	0x3d7d643a	0.06186316
38	0xbcf35acf	-0.029706387
39	0x3c588b15	0.0132167535
40	0x3c67046b	0.014100174
41	0x3d787321	0.06065667
42	0xbd98677e	-0.074416146
43	0xbcd2d78b	-0.025737545
44	0xbcd56446	-0.02604879
45	0x3c803a80	0.015652895
46	0xbc25cf8f	-0.010120287
47	0x3d0f0c6b	0.034923952
48	0x3cb9a37a	0.02266096
49	0x3c2fdab6	0.010733297
50	0xbccd69f4	-0.025074936
51	0xbd924557	-0.07142132
52	0x3d8efed7	0.069822006
53	0xbd4589a2	-0.04822696
54	0x3cf8cc47	0.030370845
55	0x3d308d4b	0.043103497
56	0x3d45ce7c	0.048292622
57	0xbd6d0039	-0.05786154
58	0xbd4c1a8b	-0.04983
59	0x3d89086c	0.066910595
60	0xbda3deae	-0.08001457
61	0x3ceb1008	0.028694168
62	0xbc8814d7	-0.0166115
63	0x3cb8d852	0.022564087
64	0xbdb14ce8	-0.08657247
65	0xbc92388b	-0.017849227
66	0xbcec76aa	-0.028865177
67	0xbd2bb97d	-0.041924942
68	0xbbaa3eac	-0.0051954594
69	0xbd06f974	-0.03295274
70	0xbc3fe172	-0.011711465
71	0xbb696bb7	-0.0035617182
72	0x3ca7feea	0.020507295
73	0x3d3d2f1a	0.046187498
74	0x3b8f92e1	0.004381523
75	0x3dab2c08	0.08358008
76	0x3d3d8cc1	0.04627681
77	0x3b42abca	0.0029704445
78	0xbd894257	-0.067021064
79	0x3c15ab37	0.009135059
80	0x3d19ce5e	0.037550323
81	0x3db3ce62	0.08779599
82	0xb91b2ec0	-0.00014799368
83	0x3d98da9c	0.074635714
84	0x3d389c77	0.04507109
85	0x3c6e7642	0.014554562
86	0x3da2222b	0.07916673
87	0x3d0034c2	0.031300314
88	0xbad9d591	-0.0016619434
89	0xbd68e84a	-0.056862153
90	0x3cba7d5a	0.02276485
91	0xbd593e95	-0.0530382
92	0xbd873c21	-0.066032656
93	0xbd7e189d	-0.06203519
94	0x3d777e59	0.06042323
95	0x3d5cda3a	0.053919055
96	0x3cc0c713	0.023532426
97	0xbd2bb41f	-0.041919824
98	0xbc70f87d	-0.014707682
99	0x3cf7f3e5	0.030267665
100	0xbd95a782	-0.0730734
101	0x3dabea78	0.08394331
102	0x3d2de134	0.0424511
103	0xbc5a56cc	-0.013326358
104	0x3d88ca51	0.06679214
105	0x3d67c7ee	0.056587152
106	0x3da61652	0.08109726
107	0xbd9d3813	-0.07676711
108	0x3d7a8e99	0.061171148
109	0x3d543d5e	0.051816337
110	0x3d8c6890	0.06855881
111	0xbd236131	-0.03988761
112	0x3d74f021	0.059799317
113	0x3d7ad242	0.061235674
114	0x3d4dcca0	0.050243974
115	0xbc3b9d80	-0.011451125
116	0xbd788506	-0.060673736
117	0xbd571ef6	-0.05251976
118	0xbc4144c5	-0.011796181
119	0x3d1e729d	0.038683522
120	0xbc827598	-0.015925214
121	0xbd1af873	-0.037834596
122	0x3d0f85a7	0.03503957
123	0x3da47ebc	0.08031985
124	0xbd8ee03a	-0.069763616
125	0x3d88bb8e	0.06676398
126	0xbd0fcb36	-0.035105906
127	0x3d39ba56	0.04534372
128	0x3d921c6b	0.071343265
129	0x3d8098fe	0.06279181
130	0x3c77b9b2	0.015119957
131	0x3d92a92f	0.071611755
132	0x3c5a7791	0.013334171
133	0xbc07a059	-0.008277976
134	0x3a89c03e	0.0010509563
135	0x3d7b6f51	0.061385456
136	0xbd5515a0	-0.052022576
137	0x3ce6afb9	0.028159963
138	0xbce31117	-0.02771811
139	0x3d867802	0.065658584
140	0xbccd8c1f	-0.025091229
141	0x3daa9e8c	0.08331022
142	0xbdb534e3	-0.08847978
143	0xbd7c361f	-0.06157505
144	0xbbec1652	-0.007204809
145	0xbcb2475b	-0.02176254
146	0xbcd42519	-0.025896596
147	0x3db39f4f	0.0877062
148	0x3d77e7e9	0.0605239
149	0xbc971d0a	-0.018446464
150	0xbd0b5d02	-0.034024246
151	0x3d975440	0.07389116
152	0xbd1fbe3d	-0.038999785
153	0x3d15c70d	0.036566783
154	0xbd9a13ce	-0.07523309
155	0x3c3fb982	0.011701943
156	0x3d876116	0.066103145
157	0xbd87dd9d	-0.06634066
158	0xbdab80f4	-0.08374205
159	0x3d38699a	0.045022584
160	0x3d19ae3e	0.037519686
161	0x3d95872c	0.073011726
162	0x3d8efe4d	0.06982098
163	0xbd981b53	-0.07427087
164	0x3c5aa2f1	0.013344512
165	0xbced89fb	-0.028996458
166	0xbd8108d9	-0.06300516
167	0x3d122379	0.03567836
168	0x3cad0f4a	0.021125454
169	0x3d79d5f1	0.060995046
170	0xbba39b66	-0.00499289
171	0xbcd6997f	-0.02619624
172	0x3d86d3f7	0.06583398
173	0x3da5f734	0.08103791
174	0xbd5f123d	-0.054460753
175	0x3c155f7c	0.0091170035
176	0x3dab5ea1	0.083676584
177	0x3d3b3f07	0.045714404
178	0xbbc36e08	-0.0059640445
179	0xbbadc387	-0.0053028497
180	0x3d838d80	0.06423473
181	0x3cf0e785	0.029407272
182	0xbc959dbd	-0.018263692
183	0xbd07835e	-0.033084266
184	0xbd90d628	-0.07072097
185	0xbda3ccf9	-0.0799808
186	0xbccdf2ec	-0.025140248
187	0x3d693473	0.056934785
188	0x3d57fc9f	0.052731153
189	0x3c818336	0.015809637
190	0xbacd352f	-0.0015656109
191	0x3c104957	0.008806548
192	0x3d2d2b10	0.042277396
193	0xba0163fb	-0.0004935858
194	0x3cd2ad6e	0.025717463
195	0xbd835efa	-0.064146
196	0xbd73386a	-0.059379973
197	0x3d81128c	0.06302366
198	0x3ccc7f34	0.024962999
199	0xbb75ddc4	-0.0037516216
200	0xbd9ad5f9	-0.07560343
201	0x3dad141e	0.08451103
202	0x3bdbdce8	0.0067096837
203	0xbd801395	-0.06253735
204	0xbd609dbd	-0.05483793
205	0x3d9f56b8	0.07780212
206	0xbc858b0c	-0.016301654
207	0xbd87ef84	-0.06637481
208	0xbce38c22	-0.027776781
209	0x3d6673c0	0.05626273
210	0x3d985c30	0.07439458
211	0xbd7179c2	-0.058954008
212	0xbda89b98	-0.08232802
213	0xbd608cfd	-0.054821957
214	0xbd7eb443	-0.06218363
215	0xbd72e2f5	-0.059298474
216	0x3dae9f39	0.08526463
217	0x3db6affd	0.08920286
218	0xbbb96355	-0.0056575933
219	0x3d72c72d	0.05927198
220	0xbdadab02	-0.08479883
221	0x3ca4573d	0.02006113
222	0x3d86d03a	0.06582685
223	0x3cc9d05f	0.024635492
224	0xbdae3a98	-0.085072696
225	0xbd8255f1	-0.06364048
226	0xbc430d22	-0.011904987
227	0xbcb4fb72	-0.022092555
228	0xbd862149	-0.065493174
229	0xbbfbcdf9	-0.007684466
230	0x3c896220	0.016770422
231	0x3d83411c	0.06408903
232	0x3da04faa	0.07827695
233	0xbd38181d	-0.04494487
234	0x3d7cb8ce	0.06169968
235	0x3db0c01a	0.086303905
236	0x3d85a2aa	0.06525166
237	0xbd9daa37	-0.076984815
238	0xbd2b7016	-0.04185494
239	0x3c0b0ed7	0.008487425
240	0x3d49089c	0.049080476
241	0x3c7b781d	0.015348461
242	0x3db5f89b	0.08885308
243	0x3d666687	0.05625012
244	0xbda3b7b3	-0.07994022
245	0x3d9843f4	0.07434836
246	0xbbb843e8	-0.0056233294
247	0xbd83e02b	-0.06439241
248	0xbda1528f	-0.07877075
249	0x3d4798ee	0.04872983
250	0x3d0fadd2	0.035077877
251	0x3d1874b1	0.03722066
252	0xbcb09f9c	-0.021560483
253	0x3bcf2dfa	0.0063226195
254	0xbda847aa	-0.08216794
255	0x3cdd4fcc	0.02701559

2.bias f4 [128]
0	0xbdb05df5	-0.08611671
1	0x3c48197c	0.012213107
2	0x3c2f14f7	0.010686151
3	0x3d9154e3	0.07096269
4	0xbc807896	-0.0156825
5	0xbd5fa470	-0.05460018
6	0x3d3110ae	0.043228798
7	0xbd3a0c50	-0.0454219
8	0xbc32acb8	-0.010905437
9	0x3d70a047	0.058746602
10	0xbd86643f	-0.06562089
11	0xbd80d66e	-0.06290899
12	0x3d1f1b9f	0.0388447
13	0x3d760a04	0.060068145
14	0x3c501a47	0.0127015775
15	0x3d853811	0.065048344
16	0xbdb43345	-0.087988414
17	0xbc1f0fbb	-0.00970834
18	0xbc578bc4	-0.013155881
19	0x3daff9e8	0.08592588
20	0xbd43b536	-0.047780238
21	0x3d0c847f	0.034306046
22	0xbd82e7f8	-0.06391901
23	0xbd8e5b2c	-0.069509834
24	0xbd40a5b7	-0.047033038
25	0x3d9b5302	0.07584192
26	0xbd559c1a	-0.052150823
27	0xbb91680f	-0.0044374536
28	0xbc3fd2e0	-0.011707991
29	0x3b7160dd	0.0036831417
30	0x3bb45576	0.005503352
31	0xbd7a6b58	-0.061137527
32	0xbd96e382	-0.073676124
33	0xbd9acae8	-0.075582325
34	0x3cb7a904	0.02241946
35	0xbd862df1	-0.065517314
36	0x3c3dd9da	0.011587584
37	0x3c6dfb43	0.0145252375
38	0xbae39236	-0.00173623
39	0xbcf3a6e8	-0.029742673
40	0x3d011805	0.031517047
41	0x3d346d9a	0.044049837
42	0x3bc6394a	0.00604931
43	0x3d0dfc4a	0.03466443
44	0xbcc69406	-0.024240505
45	0xbd727c94	-0.05920084
46	0xbcaf79c2	-0.021420363
47	0xbd9d3215	-0.07675568
48	0xbc693551	-0.014233903
49	0xbca8ee33	-0.020621395
50	0x3c9526b9	0.018206941
51	0x3c3d81f8	0.0115666315
52	0x3d8300b4	0.063966185
53	0x3c00dde4	0.007865403
54	0x3d04b165	0.03239574
55	0xbd177ec0	-0.036986113
56	0x3d1c02fb	0.03808878
57	0xbccffb4b	-0.02538838
58	0xbd877113	-0.06613364
59	0x3da5a7aa	0.0808862
60	0x3d6d896d	0.057992388
61	0xbcc12a00	-0.023579597
62	0x3d638811	0.055549685
63	0xbd81f002	-0.06344606
64	0x3d7a94d2	0.061177082
65	0xbd437e33	-0.047727775
66	0x3c8a6ad6	0.016896646
67	0xbc6ca4c7	-0.014443583
68	0xbd261096	-0.04054316
69	0xbd82f1b2	-0.06393756
70	0xbd1dfd8c	-0.03857188
71	0x3ccc7d75	0.024962166
72	0xbd722476	-0.059116803
73	0x3d2e94b8	0.042622298
74	0x3d8d3ddc	0.06896564
75	0xbda95b45	-0.082693614
76	0x3d9d7ba3	0.076895975
77	0x3ce4e715	0.02794222
78	0x3d173bd2	0.036922283
79	0x3da04ced	0.078271724
80	0x3d93dd34	0.072199255
81	0xbb1f53fe	-0.0024311538
82	0x3da3b89c	0.07994196
83	0x3d634966	0.05548992
84	0xbda388df	-0.079850905
85	0xbd444fdb	-0.04792772
86	0xbca286b9	-0.019839631
87	0xbc322525	-0.010873114
88	0x3c50ba6d	0.01273976
89	0x3d44d8f9	0.048058484
90	0xbd3e9573	-0.046529245
91	0xbd956b21	-0.07295824
92	0xbd94a883	-0.072587036
93	0x3da238c9	0.07920987
94	0x3cdb3940	0.026760697
95	0xbd3033ef	-0.043018278
96	0x39e41ef5	0.00043510614
97	0x3d22e9c2	0.03977371
98	0xbda1190f	-0.07866108
99	0xbd8b5779	-0.068037935
100	0x3cf2317b	0.02956461
101	0x3dad6356	0.084662125
102	0xbc8dab34	-0.01729355
103	0x3da1bb06	0.07897
104	0x3caf8f1b	0.021430543
105	0xbda55679	-0.08073134
106	0xbc47102c	-0.012149852
107	0xbc36dc0b	-0.011160861
108	0xbd5350b9	-0.051590655
109	0x3d4752fd	0.04866313
110	0xbbfbea75	-0.0076878616
111	0x3cf772d2	0.030206118
112	0x3d81248e	0.063058004
113	0x3d9bbe59	0.07604665
114	0x3d7ae089	0.06124929
115	0xbd9ac628	-0.075573266
116	0xbda58945	-0.08082823
117	0xbbbcc7c1	-0.005761117
118	0xbd7279f6	-0.059198342
119	0x3cd14e29	0.025549965
120	0x3da8b18a	0.08236988
121	0xbda85382	-0.08219053
122	0x3d338d3d	0.043835867
123	0xbd04bdb0	-0.032407463
124	0xbcab5393	-0.020913875
125	0x3d8ba67b	0.06818863
126	0xbd8c6905	-0.068559684
127	0xbcb18033	-0.021667575

4.weight f4 [1, 128]
0	0xbd8ba583	-0.06818678
1	0x3d9aecf6	0.07564728
2	0xbd5f0b2f	-0.054454025
3	0x3da711e8	0.08157712
4	0xbc20f8c7	-0.009824938
5	0x3d61725c	0.055040702
6	0x3d515aec	0.0511121
7	0x3cd65b4c	0.02616658
8	0x3b27db78	0.0025612991
9	0xbdb64c55	-0.08901278
10	0xbdac1773	-0.0840291
11	0xbcfbcda1	-0.0307377
12	0x3d571734	0.052512363
13	0x3da67480	0.08127689
14	0xbac5d4f0	-0.0015093368
15	0xbd0416a0	-0.03224814
16	0xbcc5d72d	-0.024150455
17	0x3daf9d92	0.08574976
18	0x3d8b1270	0.06790626
19	0x3d934366	0.071905896
20	0x3daeeec5	0.085416354
21	0xbd925e4a	-0.071468905
22	0xbbd4b614	-0.006491432
23	0x3d8d44b1	0.068978675
24	0xbcc66e20	-0.024222434
25	0xbd5ea58d	-0.0543571
26	0xbca7ad55	-0.020468393
27	0x3da5c05f	0.080933325
28	0xbda12ace	-0.078694925
29	0xbc645e66	-0.013938522
30	0x3ad965ad	0.0016586088
31	0x3db1397f	0.08653545
32	0xbd901d9b	-0.07036897
33	0xbd242aee	-0.040080003
34	0xbb0f7443	-0.0021889366
35	0x3da4ce2a	0.08047135
36	0x3d908d71	0.07058228
37	0x3be781f9	0.0070650545
38	0x3d9c4360	0.07630038
39	0x3cbc276f	0.022968022
40	0x3d921664	0.07133177
41	0xbd36d239	-0.044634078
42	0x3d7e7a84	0.06212856
43	0x3d7d3891	0.061821524
44	0xbd0581f1	-0.032594625
45	0x3b6a287e	0.0035729702
46	0x3d5480b1	0.051880542
47	0xbda6db7a	-0.081473306
48	0x3d5c3493	0.053761076
49	0xbc92da0b	-0.017926237
50	0x3c68c1ca	0.014206359
51	0xbceefc5a	-0.029173065
52	0x3d5fe34b	0.054660123
53	0xbd953816	-0.07286088
54	0x3db3ebf7	0.08785241
55	0x3d5f48bd	0.054512728
56	0x3dae5ed3	0.0851418
57	0x3da97a1d	0.082752444
58	0x3d836782	0.06416227
59	0xb772e2b8	-1.4477111e-05
60	0xbd30d91e	-0.04317581
61	0xbc991af1	-0.018689604
62	0xbd82cea0	-0.06387067
63	0x3d9faed6	0.07797019
64	0x3da3ab32	0.07991637
65	0xbce8cd0c	-0.028418086
66	0x3d5208a7	0.051277783
67	0x3cbbeb10	0.022939235
68	0xbce36476	-0.027757864
69	0xbcc7ab72	-0.024373744
70	0xbc1ff6e7	-0.009763456
71	0xbd8adbcd	-0.06780205
72	0x3d91da05	0.07121662
73	0xbd8541e3	-0.065067075
74	0xbd0ab8ea	-0.033867754
75	0xbd199347	-0.03749397
76	0xbdacca3a	-0.08437009
77	0xbd3effcb	-0.046630662
78	0xbd80d778	-0.062910974
79	0x3cc2737d	0.02373671
80	0x3d0fd89b	0.03511868
81	0x3d29e55f	0.04147851
82	0x3d7e73a6	0.06212201
83	0x3da0d2c2	0.07852699
84	0xbd78427f	-0.06061029
85	0x3c85d915	0.016338864
86	0x3c8dd348	0.01731266
87	0xbdb850af	-0.08999764
88	0xbb057b66	-0.002036774
89	0x3c03f480	0.008053899
90	0x3c86271a	0.016376067
91	0x3d817212	0.06320585
92	0xbd3eef71	-0.046615068
93	0x3d49ee5b	0.04929958
94	0xbbd33d96	-0.0064465506
95	0x3c331cd0	0.010932162
96	0x3d8be3a0	0.068305254
97	0xbc8a48b5	-0.016880373
98	0xbd9c9783	-0.07646086
99	0xbcf15cad	-0.029463137
100	0x3db52f10	0.08846867
101	0xbda307f4	-0.07960501
102	0xbcf01424	-0.029306479
103	0x3d01f50b	0.03172783
104	0x3d052365	0.032504458
105	0x3d60afc4	0.054855123
106	0xbcaa7550	-0.020807892
107	0x3d6ac532	0.057316966
108	0x3d6bf860	0.057609916
109	0x3d3212dc	0.043475017
110	0xbc6cf18e	-0.014461888
111	0xbcdb6a69	-0.026784139
112	0xbd42f81c	-0.047599897
113	0x3d8166f4	0.06318465
114	0xbcf5fb08	-0.030026928
115	0xbd0b3806	-0.033988975
116	0x3cdd02ea	0.026978929
117	0x3d2b76f5	0.041861493
118	0xbda58fcb	-0.08084067
119	0x3c3b5a65	0.011435126
120	0xbda4f2ce	-0.08054124
121	0x3d8ae84c	0.06782588
122	0x3d16e360	0.036837935
123	0x3d0770b2	0.03306646
124	0xbd02c3e5	-0.0319251
125	0x3d5ef664	0.054434195
126	0xbcf02325	-0.029313633
127	0x3d2610ca	0.040543355
