savedModel/model_sept-rain.pt (torch_old, 88072 bytes, 5 tensors)

0.weight f4 [128, 39]
00000000: 75b8 24bd f499 1dbe d22d 89bd 91c4 29bd
00000010: 9133 2e3d c1bc 223c 1b79 db3b 0ada 07be
00000020: 9cef d43b 4385 ae3c fe6e 9d3d b85b 05be
00000030: fd7f 033e 587e e73d e2c2 debd e621 d63d
00000040: 6b72 013d 916d 113e d2f7 43bd 9c79 a23d
00000050: d0f7 01bd f290 47bd 51b7 b9bc c4b6 80bc
00000060: fdf1 41bd b71d 703d 9b93 023d 9696 373d
00000070: c5d2 e3bd 433a 0fbd 5686 253d 099f 04be
00000080: 466e a0bd f4d2 083e 7eef 07be d157 57bd
00000090: ea56 0ebe 3775 fcbd d866 513d ff46 abba
000000a0: 61fd a43c ede5 97bc 80cf f8bd 6d5f f93d
000000b0: 694e 9dbd c1af 35bd 285e 20be 0c2f afbd
000000c0: 8aa1 0abe 1f4b f83c 3dd9 413d 7b3b a1bc
000000d0: 562f 51bb e239 49bd 4f6b 083e 32c8 1abe
000000e0: 38b3 0a3e bb9f b83d 7143 18be fc60 103e
000000f0: 2b16 173e ff72 653d 741a e43d d6f7 c73c
00000100: e423 14be ef80 08be 9ab7 f63d 2944 94bc
00000110: 220f 1dbe eda8 0abe 1a92 bf3c 7fd2 a43d
00000120: 5009 ab3a e76e 31bd 97f0 6f3c 8722 a7bd
00000130: 45dc d7bd 7a1a 15be 53a2 d9b9 3e30 15be
00000140: 8230 033e e4d3 013e aca7 29bd 8430 0e3e
00000150: d040 1b3e 6b5a 083e e46e 8ebc 4635 d7bb
00000160: ed84 ca3d a451 ca3c 4afc 09bd d79b d23d
00000170: 2701 163d e71d f6bd ce47 813d b05f 723d
00000180: a395 ff3d 7d88 463d e8c1 36bd 04ac c6bd
00000190: ba38 e9bc a130 2abd 81a3 02be 0d50 37bc
000001a0: c1f2 b1bd 2eb1 653d 5401 e1bd ae38 d3bc
000001b0: 45dc c1bc a434 17be 3413 a33d 09ce 873d
000001c0: e3b5 1d3e 4548 a3bd a2a5 40bd c9a5 b33d
000001d0: 555e b6bd 4b45 d73d 13a1 383d b3ba 983c
000001e0: 7283 89bd 231d ec3d cf1a fa3d 2206 193e
000001f0: fd18 0bbc 3cb7 4dbd 44cb 933d ab3b dfba
00000200: 03ca 03be c98d 763b 7ab1 373d b0bc ed3d
00000210: e745 0dbe 12db f73d ac91 e53b d6c7 0b3c
00000220: 438c d53d 7c8e f83d e871 fe3c 8189 d1bd
00000230: 2ab1 143e 284b aabd b355 093e 725b c53d
00000240: e5a4 173e b731 37bd d715 98bd 4d43 af3d
00000250: 287f cf3c 1ed7 833d 92c9 bcbd 9cbe ee3d
00000260: 8c70 f5bd 6920 f6bd d757 033e 1148 4dbd
00000270: cbbd d13d e5ef 803d 3e2a a23d 1377 123e
00000280: 74d2 3c3d 4fde 10be 4ca2 16bd 2f60 053e
00000290: 3ade 14be d2bd adbb 1084 c73d d323 383d
000002a0: 60d1 0f3e cb58 833b 4bbf 193d 4c18 103e
000002b0: 74a9 c63d 5da8 543b 91da 473d 03f5 bcbd
000002c0: a5b8 8abd 0097 4a3d 83a5 1e3e 7096 4fbd
000002d0: 466b 153d f1c6 20be 13e1 9e3d c351 103e
000002e0: be4e 24bd de47 21bd 1baf a53c 2255 1f3e
000002f0: 0424 0b3e c190 ab3d 0b36 d4bb 53ff 123e
00000300: 2ed1 04be 50e4 9dbc 6bd6 063e 8545 eebd
00000310: 11f8 13bb 165a 053e 37e0 c73b cc87 ad3d
00000320: 9c8c 12be 5384 fabd f661 1e3e 990e ac3d
00000330: 39aa 0fbe 88f7 a03d b021 04be b8a2 22be
00000340: 9bb9 0b3e f311 a0bd 99f1 f53d 5cf4 203e
00000350: 74b4 f63d e0f1 ee3d 42ae bf3d 8662 21be
00000360: 7740 c23d b355 9abd df66 8a3d 664b 133e
00000370: fdea 14be f334 013e 20fb febb 4d4c ac3d
00000380: acb7 863d 6c21 eabd 54e7 7ebd 6d26 803d
00000390: 4619 0e3e d8ae 403d aa4b a53d 78d6 52bd
000003a0: 49fb dcbd 5ae9 ae3d 733f 223e bd0d a43c
000003b0: fb73 06be 3870 89bd c82b d0bb cc4b 973d
000003c0: 78df b7bc 0fad 1c3d 3b19 713d afb1 7a39
000003d0: 29d3 0cbe cd51 bbbd 2b53 863d daeb d1bd
000003e0: 3b3d 353d becd 80bc d433 a0bd 8ce6 d8bd
000003f0: 3c8a a7bd 35f4 dabd a999 be3d 0ed9 1ebc
-0.040214974 -0.1539076 -0.06698193 -0.041447226 0.042529646 0.009932698 0.0066977865 -0.13266769
0.00649829 0.021303779 0.07687186 -0.13023269 0.12841792 0.11303395 -0.10877015 0.10455684
0.031603258 0.14201953 -0.04784376 0.079333514 -0.031730473 -0.048722215 -0.02267042 -0.01571215
-0.04734992 0.05862209 0.03187905 0.044821344 -0.111241855 -0.034967672 0.040411316 -0.12951292
-0.07833533 0.13361722 -0.13274953 -0.052573983 -0.13900343 -0.123270445 0.05112347 -0.0013067423
0.020140352 -0.018542254 -0.121489525 0.12176404 -0.07680971 -0.044357065 -0.15660918 -0.08553895
-0.13538185 0.030309258 0.047326315 -0.019681683 -0.0031919084 -0.049127467 0.13322185 -0.15115431
0.13544929 0.09014841 -0.14869477 0.14099497 0.1475455 0.056017872 0.11137858 0.02441017
-0.14466816 -0.13330434 0.12046738 -0.018098908 -0.15337804 -0.13541003 0.023385096 0.080479614
0.001304904 -0.043318655 0.014644763 -0.081608824 -0.1054006 -0.14560881 -0.00041510406 -0.14569184
0.12811473 0.12678486 -0.04141967 0.13885695 0.15161443 0.13315742 -0.017386861 -0.00656763
0.09888635 0.024697132 -0.033687867 0.1028363 0.036622193 -0.12017422 0.06312524 0.059173286
0.12479713 0.04847001 -0.044618517 -0.09700778 -0.028469432 -0.041550282 -0.12757684 -0.011188519
-0.0868888 0.056077175 -0.109865814 -0.025783863 -0.023664603 -0.14766175 0.07962647 0.06631095
0.15401416 -0.07972769 -0.04703296 0.087718554 -0.08904711 0.105112635 0.045075487 0.018643713
-0.06714524 0.11528995 0.122121446 0.14943746 -0.008489844 -0.050223574 0.07216504 -0.0017031332
-0.1287003 0.0037621132 0.04484699 0.11608255 -0.13796197 0.12102331 0.007005891 0.008531531
0.104271434 0.12136552 0.031060174 -0.10231305 0.14520708 -0.08315116 0.13411598 0.096365824
0.14808996 -0.044725146 -0.074260406 0.085577585 0.025329188 0.06437515 -0.09218134 0.116574496
-0.11984357 -0.120179005 0.12826477 -0.050117556 0.10241278 0.06295756 0.07918213 0.14303236
0.04609914 -0.14147304 -0.036775872 0.13024972 -0.14537898 -0.0053021694 0.09741986 0.04495604
0.14044714 0.0040083877 0.037535947 0.14071769 0.09700289 0.0032448985 0.048792426 -0.0922642
-0.067734994 0.04946041 0.15492825 -0.050680578 0.036479257 -0.1570089 0.07757773 0.1409369
-0.040114157 -0.03937518 0.020225098 0.1555982 0.13587958 0.08377219 -0.006476169 0.14355211
-0.1297042 -0.019273907 0.13167731 -0.116343535 -0.002257828 0.13022646 0.0060997265 0.08473167
-0.1431145 -0.1223227 0.15467057 0.08401222 -0.14029779 0.07859713 -0.12903476 -0.15882385
0.13645022 -0.078159235 0.12008972 0.15718216 0.120461375 0.11667228 0.09359409 -0.1576024
0.09484952 -0.07535877 0.06757902 0.14384231 -0.14542766 0.12617855 -0.0077814013 0.08412991
0.065780014 -0.11432156 -0.06223233 0.06257329 0.13876829 0.047041744 0.080710724 -0.051474065
-0.10790116 0.08540602 0.15844516 0.020026082 -0.1313018 -0.06710857 -0.0063528754 0.07387504
-0.022445425 0.03825098 0.058861952 0.0002390805 -0.13752426 -0.09146462 0.06558832 -0.10250063
0.044247847 -0.015723106 -0.078223854 -0.10590848 -0.08180663 -0.1069111 0.09306652 -0.009695305

0.bias f4 [128]
00000000: 7e63 04be 1509 ff3d 9efd 21be 5a33 c43c
00000010: 54f9 9e3c f809 da3c 1c11 9abb c917 94b6
00000020: d4ee 6bbd a9cd 563d bf3e 373d b3a5 913d
00000030: a271 07be 19a1 183e edf7 e5bd 701e d43d
00000040: ceae 713d 42a1 e33b 09c2 c53d d06f 0cbe
00000050: 0213 093e 2697 563d df68 b8bd 7664 873d
00000060: 5898 20bd 6318 f43d b565 133d 2b17 b13d
00000070: d30b 05be 9381 0d3e 064e a23d 0e58 d53d
00000080: c0a5 01be ce99 dbbd d60e 16be 1e19 0bbd
00000090: e428 9b3c 8565 ddbc 3219 79bd d32a a13c
000000a0: 80fb 443d ce77 8a3b f8a3 bf3d 052e 1c3d
000000b0: 9050 0e3e 215e ac3d 65e2 383d 6b5a 0ebe
000000c0: 8cc4 21be 981d 11be 542a 223e 51f3 1b3e
000000d0: 059c 49bd 7273 e03c 968e 16be 9eed 11be
000000e0: 68ba 1dbd 0ce7 35bd 1e5a 913c efe2 e9ba
000000f0: 4269 0ebe a748 0b3d dda8 753c 3cfc 0bbe
00000100: d38a fbbd 3674 96bd ca61 58ba 53c1 203e
00000110: 1eae 853c 2d4a d0bd 9f7e 263d 9125 99bd
00000120: 3f86 d3bd 0d8d 16be d5da da3d e440 093e
00000130: ce93 923d 28b2 303d ac1d 16be e1af 063e
00000140: 4b2c 4cbd e7c2 18be 5702 cf3d 1e41 b6bc
00000150: e998 14be 72a9 ad3c 1946 ddbd dd03 eabd
00000160: fe6f 8cbd be3f 95bd 3d97 0cbe 90dd e0bd
00000170: 8227 1a3d e1a0 10be 659d d5bc fec2 a8bd
00000180: 3fa7 96bd 69e7 b0bd 6ecc ae3b 90e3 e93d
00000190: daf1 f73c 9be0 983d cbf4 5c3d 84a6 1dbe
000001a0: 476a 623d 8e3d d53d 9d4b 09be 917f 00bd
000001b0: 6249 4639 50ab 12be 1baf 1abe 4526 143e
000001c0: bf35 963d 773f cc3d 48ff d53d 7f62 aabd
000001d0: 184e 343d a9ee 823d bb70 fd3c 09d7 8f3d
000001e0: c2a3 303c 6dbb 0f3e faf8 92bd 9c71 2e3d
000001f0: 01d4 7b3c 228d 023e eea4 c33d df66 b73d
-0.12928578 0.12452904 -0.15819404 0.023950268 0.019405998 0.026616082 -0.0047017466 -4.4135127e-06
-0.05760081 0.052442227 0.044737574 0.07111683 -0.13226941 0.14905204 -0.11228929 0.10357368
0.059004597 0.0069467137 0.0965615 -0.13714528 0.13386157 0.05239024 -0.090043776 0.06610958
-0.039207786 0.11918714 0.035985667 0.08646997 -0.12992792 0.1381896 0.07925038 0.10417186
-0.12660885 -0.10722695 -0.14654097 -0.0339595 0.018940397 -0.027025947 -0.060815044 0.01967374
0.04809141 0.0042257076 0.093574464 0.038129825 0.1389792 0.08416391 0.04513778 -0.13901679
-0.15797633 -0.14171445 0.1583646 0.15229537 -0.049221057 0.027398799 -0.1470283 -0.142508
-0.03850785 -0.044409797 0.017743167 -0.0017844121 -0.1390734 0.034004834 0.014993873 -0.13670439
-0.12282338 -0.07346384 -0.0008254318 0.15698747 0.016318377 -0.10170398 0.0406481 -0.07477868
-0.1032834 -0.14702244 0.1068627 0.1340366 0.07157098 0.043138653 -0.14659756 0.1315303
-0.04984693 -0.149181 0.10107868 -0.022247847 -0.14511456 0.021198962 -0.10804386 -0.11426518
-0.06857298 -0.072875485 -0.13729568 -0.1097976 0.037635334 -0.1412387 -0.026076028 -0.08240317
-0.073561184 -0.08637888 0.0053344285 0.11420357 0.030266691 0.07464715 0.05394439 -0.15395552
0.055277135 0.10412131 -0.1340775 -0.031371657 0.00018910089 -0.14323163 -0.1510586 0.14467724
0.0733447 0.099730425 0.10449082 -0.08319568 0.04401979 0.06393177 0.030937543 0.070234366
0.01078123 0.14036341 -0.07176395 0.042588815 0.01537037 0.1274915 0.09552942 0.08955168

2.weight f4 [128, 128]
00000000: fcf5 acbd d419 013c b919 433d a07c b3bd
00000010: 3426 6abd 6b2d 803d e725 79bd dacc 97bd
00000020: 7a11 353d 3c77 10bd f331 983d 2e7b ad3d
00000030: 6bf5 723d 8614 403d 4189 4d3c bc69 bcbb
00000040: 1ca4 e6bc 19a2 b93c 46a7 92bd bdab 78bc
00000050: 8585 5a3d 776c 2dbd 85ad 763c f7cf 5d3d
00000060: dfcd 7dbd 78d6 c1bb 17aa 24bc 88ab 6fbd
00000070: 932a 953d 7671 973d 2c66 96bd f8ea 16bd
00000080: fb2e 8dbd 9886 5abd 2367 553d 4d92 063c
00000090: 6bec 443d 3ae7 7d3d 7fc4 f2bc 14fc 593c
000000a0: b312 693c 818d 783d e23d 98bd dfc9 d2bc
000000b0: f28e d3bc 3e7a 823c 77f4 24bc c117 0f3d
000000c0: 3671 b93c e1cf 313c ef38 cdbc b320 92bd
000000d0: 01a2 8f3d b296 45bd 2cd1 f83c 76eb 303d
000000e0: b944 463d 7665 6cbd 0307 4cbd 1608 893d
000000f0: dbef a3bd 5fd1 eb3c c34e 87bc 21c9 b83c
00000100: fd51 b1bd 97bf 8ebc ab87 ecbc 8f29 2abd
00000110: 167b a6bb 290d 07bd fe0e 3dbc 5439 6abb
00000120: c80a a83c 7807 3d3d 1af3 913b dcab ab3d
00000130: e72f 3e3d a174 463b 3348 89bd 7d3c 163c
00000140: 4035 1a3d e2bb b33d 49ab 11b9 5ee2 983d
00000150: 35a2 383d 36ed 703c ff75 a23d 7e76 003d
00000160: 651a cbba 4e0c 69bd 8a52 ba3c 8940 59bd
00000170: f029 87bd bbf7 7dbd a98c 783d 3654 5d3d
00000180: 0f81 c13c b587 2bbd 4b52 70bc ca67 f83c
00000190: 1584 95bd 78ea ab3d 652f 2e3d 3158 5abc
000001a0: cad5 883d f9a2 693d c913 a63d e212 9dbd
000001b0: b3c6 7a3d 154b 543d 846a 8c3d 705c 23bd
000001c0: 5a69 753d 564b 7b3d 56c7 4d3d be34 3cbc
000001d0: 55b8 77bd f60c 57bd 415a 41bc 89de 1e3d
000001e0: 8953 81bc b146 1abd 6cb9 0f3d 2d75 a43d
000001f0: 22e4 8ebd c88c 893d ecb1 0fbd 1d23 3a3d
00000200: 3916 923d 6d59 803d c3b5 773c 9b97 923d
00000210: 0d11 593c 9c58 08bc 0a2b 803a e463 7b3d
00000220: b109 55bd 8059 e63c 18aa e3bc db3e 863d
00000230: 1f8c cdbc 3a9c aa3d fc42 b5bd 1566 7cbd
00000240: fc2c efbb 3866 b2bc 8797 d4bc 6277 b33d
00000250: e5b8 773d c622 97bc 1b03 0cbd be39 973d
00000260: 5f09 20bd 3251 153d ae32 9abd 8b40 3f3c
00000270: 6542 873d 3cff 87bd c287 abbd 4c32 383d
00000280: f56a 193d 5081 953d 6bf8 8e3d 902f 98bd
00000290: 84ce 593c b5dc edbc db1d 81bd 78f8 113d
000002a0: e391 ac3c 88c6 793d 6b14 a4bb 7990 d6bc
000002b0: 77a4 863d 80bc a53d 6e2c 5fbd 0d74 153c
000002c0: 8962 ab3d 6218 3b3d d2c5 c4bb 1948 afbb
000002d0: d34c 833d 4b9c f03c aa98 95bc a897 07bd
000002e0: cbe3 90bd b2db a3bd c73b cebc 4e0a 693d
000002f0: 76ef 573d 7d2d 813c f3d6 cdba f86a 103c
00000300: f324 2d3d 9fd6 26ba 657e d23c 7bb0 83bd
00000310: a357 73bd a40e 813d c60b cc3c c70e 76bb
00000320: ffd5 9abd 7206 ad3d 6776 db3b d846 80bd
00000330: 3fcd 60bd dc50 9f3d e9b5 85bc 4c06 88bd
00000340: dadd e3bc bc66 663d 7352 983d 3c8c 71bd
00000350: 8c9d a8bd 43bc 60bd bfe1 7ebd b9ea 72bd
00000360: 7886 ae3d a594 b63d f764 b9bb 79a6 723d
00000370: 91bc adbd 592c a43c 1895 863d 7281 c93c
00000380: 1a47 aebd 8d5e 82bd 0599 43bc c84a b5bc
00000390: b82f 86bd 479f fdbb c9be 883c 0445 833d
000003a0: 0e3b a03d c8de 38bd 44bd 7c3d 54b3 b03d
000003b0: e79b 853d 13b0 9dbd 436e 2bbd 0858 0a3c
000003c0: efc1 483d ee7c 7a3c a8cc b53d d050 663d
000003d0: 85de a3bd 8227 983d 8087 b8bb 09f5 83bd
000003e0: 0c6d a1bd 8e4b 473d 3da1 0f3d 874b 183d
000003f0: 60eb b0bc 6ec8 c93b f469 a8bd cded dc3c
-0.08445355 0.007879693 0.047631953 -0.08764005 -0.05716534 0.06258663 -0.060827162 -0.07412119
0.04420612 -0.03526996 0.07431402 0.0847076 0.05931608 0.046894573 0.012544931 -0.005749909
-0.028154425 0.022660302 -0.07160811 -0.015177664 0.05334999 -0.04233977 0.015056019 0.05415341
-0.061963912 -0.0059154592 -0.010050318 -0.058513194 0.07283511 0.07394688 -0.073437065 -0.036845177
-0.068937264 -0.053351015 0.052100312 0.008213592 0.04807703 0.061988093 -0.029634712 0.013304729
0.01422565 0.060681824 -0.07433678 -0.025731025 -0.025824998 0.01592743 -0.010068051 0.034934763
0.022636991 0.010852785 -0.025051562 -0.07135143 0.07013322 -0.048239417 0.030373178 0.043193303
0.048405383 -0.05771395 -0.049811374 0.066909954 -0.08004733 0.02878636 -0.016517049 0.022556843
-0.08658216 -0.017425342 -0.028873285 -0.04154354 -0.005080591 -0.032971535 -0.011539219 -0.0035739737
0.020512953 0.0461497 0.004454029 0.08382389 0.046432402 0.0030281919 -0.06703224 0.009169695
0.03764844 0.0877607 -0.00013892086 0.07465051 0.045076568 0.014704993 0.07932662 0.031363003
-0.0015495537 -0.0568965 0.022744436 -0.05304006 -0.06599796 -0.062003832 0.06068102 0.054035388
0.02362111 -0.041877467 -0.014668058 0.030322928 -0.07300583 0.08394331 0.042525668 -0.0133266905
0.06681402 0.05704019 0.081092425 -0.07669617 0.06122465 0.051829416 0.06856254 -0.039883077
0.059914924 0.061351143 0.05023893 -0.011487184 -0.060478527 -0.052502595 -0.011801303 0.038786445
-0.015786903 -0.037665073 0.03508894 0.08030162 -0.06977107 0.06716305 -0.03508179 0.045443643
0.07133145 0.062670566 0.015119019 0.07157823 0.013248694 -0.008321907 0.0009778452 0.06137456
-0.052011196 0.028118849 -0.027791068 0.065549575 -0.025091229 0.08330579 -0.08850667 -0.06162079
-0.0072990637 -0.021777257 -0.02595116 0.08763005 0.060479064 -0.018449198 -0.03418265 0.0738406
-0.039071437 0.036454387 -0.07529198 0.011673103 0.066044606 -0.06640479 -0.08375503 0.04496984
0.037455518 0.07300055 0.06980976 -0.07430947 0.013293866 -0.029035905 -0.063045226 0.03563735
0.021065658 0.06098035 -0.005007317 -0.026191937 0.06574338 0.08092594 -0.05448573 0.009121907
0.083684035 0.04567755 -0.0060050273 -0.005349171 0.064111374 0.029371401 -0.018261272 -0.033103615
-0.07074698 -0.08000888 -0.025174988 0.056894593 0.052718602 0.01576876 -0.0015704319 0.008814566
0.042271566 -0.00063643785 0.025695035 -0.06430145 -0.05940975 0.063016206 0.024907958 -0.003754543
-0.07560348 0.08448495 0.0066974643 -0.062635124 -0.054883238 0.077790946 -0.016322093 -0.06641826
-0.027815748 0.05625032 0.07437601 -0.05897163 -0.08233175 -0.05486704 -0.062227007 -0.05930588
0.08521742 0.089150704 -0.005657788 0.059240792 -0.08483232 0.020040678 0.06571406 0.024597857
-0.08509655 -0.063656904 -0.011938338 -0.022130385 -0.065520704 -0.0077399346 0.016692536 0.06409648
0.07823764 -0.045134336 0.061703935 0.08627954 0.06523877 -0.07699599 -0.0418532 0.00844384
0.049013074 0.015288575 0.08876926 0.056229413 -0.080014266 0.074294105 -0.0056313872 -0.06443221
-0.07882127 0.04865604 0.03506588 0.037181403 -0.02159661 0.0061579263 -0.08223334 0.026968861

2.bias f4 [128]
00000000: dbde aebd 1201 423c 9696 2f3c dc17 913d
00000010: 38d6 7fbc aeae 61bd e78f 2e3d 7861 3abd
00000020: 4801 33bc 4b27 743d 1c1c 86bd f7a5 80bd
00000030: aef3 1c3d 8d70 743d 397b 503c 840b 863d
00000040: e507 b4bd 4ff5 2bbc cb90 5ebc 887c ae3d
00000050: d9e1 44bd 34bf 0f3d 10e4 82bd 261f 8fbd
00000060: 4ca0 3fbd 6fb2 9c3d 4981 55bd edef 9ebb
00000070: 0362 3abc ebed 763b b919 b43b 69e6 7abd
00000080: 5f53 96bd 55b2 9abd c1e0 b73c 47a2 86bd
00000090: e5b6 2f3c e7d6 6c3c 59bb 2fbb 5512 f4bc
000000a0: 8fa8 ff3c a56a 363d 9db9 c23b 7347 0b3d
000000b0: 503f c3bc 37a0 72bd f53a b0bc e600 9cbd
000000c0: 69ba 6abc 9896 a7bc 3ff3 943c a08b 403c
000000d0: e008 823d a493 073c b690 003d c5dc 17bd
000000e0: 6237 1b3d ee57 d5bc a804 88bd aaa7 a53d
000000f0: bba1 6f3d e1e2 c0bc b316 663d 5ed2 83bd
00000100: 89ab 763d 4c5a 43bd 308b 863c a4eb 6dbc
00000110: c185 25bd 33de 82bd 7ad2 1dbd 33f8 d13c
00000120: d65e 75bd f793 313d 5d12 8e3d 9476 a8bd
00000130: 583b 9e3d 985f e53c b4d5 193d a1e3 9f3d
00000140: c42f 933d f0ad 23bb fb30 a23d e8ea 613d
00000150: c83c a3bd c881 44bd 027d a3bc e805 20bc
00000160: 11f3 503c ec83 443d 94a1 3ebd bb2d 96bd
00000170: 462a 94bd 0a78 a13d a496 db3c e555 30bd
00000180: 1a91 e9b9 aad2 233d 2683 a0bd d30f 8bbd
00000190: 17ff ed3c 0d48 af3d 27c1 8abc c70b a13d
000001a0: 13cc ac3c 0e88 a5bd 431c 46bc 460d 43bc
000001b0: a5be 53bd 7e4a 453d ac8b f6bb e22c f83c
000001c0: 116b 813d c898 9b3d 1a72 7c3d 6815 9abd
000001d0: bba5 a5bd 8cc1 ccbb d836 71bd 2945 d03c
000001e0: 0cc7 a93d bd7e a8bd 98d9 313d a6ee 04bd
000001f0: 47a9 a9bc d75e 8a3d 6061 8cbd f75f b3bc
-0.085386 0.0118410755 0.010717055 0.07084629 -0.015615039 -0.05509823 0.042617705 -0.04550311
-0.010925598 0.059607785 -0.0654833 -0.06281655 0.03831833 0.05967765 0.012724691 0.06545165
-0.08790568 -0.010495498 -0.013584326 0.08519846 -0.048066948 0.035094455 -0.06391156 -0.06988363
-0.04678373 0.07651221 -0.05212525 -0.0048503787 -0.011375907 0.0037678431 0.0054962304 -0.061254892
-0.073401205 -0.075535454 0.022446038 -0.06573921 0.010724758 0.014455534 -0.0026814549 -0.029793898
0.031208305 0.044535298 0.005942537 0.034003686 -0.0238339 -0.059234824 -0.021512488 -0.07617359
-0.01432667 -0.02045755 0.018182395 0.011752039 0.06349349 0.008274946 0.031388007 -0.037075777
0.037894614 -0.026042905 -0.06641513 0.0808862 0.058503848 -0.023545684 0.05617399 -0.06436609
0.060222182 -0.047693536 0.016423792 -0.014521513 -0.04041076 -0.063900374 -0.038530804 0.025631046
-0.059904896 0.043354 0.06937096 -0.08225742 0.07726163 0.027999684 0.03755732 0.07807089
0.07186845 -0.00249755 0.079194985 0.055155665 -0.079705775 -0.04797533 -0.01995707 -0.009767033
0.012753264 0.047977373 -0.04654081 -0.07332941 -0.072346255 0.07884224 0.02680523 -0.043050665
-0.00044549332 0.039995827 -0.078375146 -0.067901276 0.0290523 0.085586645 -0.016937805 0.078635745
0.021093404 -0.08082591 -0.012091699 -0.01190502 -0.051695485 0.048166744 -0.0075239744 0.03029484
0.063192494 0.075975 0.061632253 -0.07523614 -0.08088251 -0.0062486585 -0.058890194 0.025423603
0.08289918 -0.082272984 0.043420404 -0.032454155 -0.0207106 0.067563705 -0.0685451 -0.021896346

4.weight f4 [1, 128]
00000000: b5d4 8ebd 99f6 993d 473c 5fbd fd4a a73d
00000010: de67 24bc f5a1 5f3d d5c1 473d 0997 d63c
00000020: 9514 0c3b 2b01 b8bd a1cc abbd 9f8e fbbc
00000030: 801e 543d d82c a63d 638c 14bb 0251 0cbd
00000040: 8e20 c6bc 5339 ae3d e0c9 8a3d 33c3 913d
00000050: 9fad ae3d 28da 94bd 1999 cdbb f514 8d3d
00000060: 6482 ccbc ed0c 66bd ec21 a7bc 467f a53d
00000070: fa76 a1bd 254c 68bc b51c e53a cb47 b13d
00000080: e6b5 90bd 4c9a 23bd 2a69 4cbb f000 a53d
00000090: 2f94 8e3d a118 cf3b 3231 983d 05ba bd3c
000000a0: 539a 913d 70b8 39bd 36ed 7d3d 7f22 773d
000000b0: e1dc 09bd 3043 3b3b 57f3 533d df16 a7bd
000000c0: 51ed 5c3d 3ef2 9abc 34a7 6a3c 9cce f1bc
000000d0: e0a8 5c3d 1db4 95bd f020 b23d db10 603d
000000e0: 8776 ae3d 723b a93d 2f1d 833d 1117 6f39
000000f0: 218d 37bd f7e4 97bc 1d0c 84bd 2506 9c3d
00000100: f7c1 9e3d 6aaf e5bc a720 4d3d 162f bb3c
00000110: f520 e3bc ac57 c6bc 89ef 23bc d507 8dbd
00000120: ca99 8f3d b76d 88bd 334c 15bd 4098 1cbd
00000130: 47fb acbd 3955 3ebd 50fb 82bd d1e5 bd3c
00000140: 2e38 0d3d 19b4 293d 6108 7a3d a6cc 9f3d
00000150: 3ee7 77bd 4230 853c 4af9 893c 218d bbbd
00000160: ecbe 2ebb c9b8 e63b 6ec4 863c b2e3 803d
00000170: 404a 3fbd 62bd 483d ba13 e0bb be10 313c
00000180: 4b54 893d 13eb a1bc 97cc 9cbd 15ba f2bc
00000190: e9ab b43d ef4b a5bd d794 01bd 8953 f33c
000001a0: 9972 033d 5c8d 613d 30aa a9bc 3bd1 653d
000001b0: a367 6c3d cc6b 2c3d 28f1 7bbc 3896 dbbc
000001c0: 2ff4 42bd a420 813d 8dce 06bd dddd 0ebd
000001d0: 84e7 dd3c 2669 203d 6c93 a5bd bafb 193c
000001e0: c9a3 a5bd 4846 8b3d 2d42 123d 60d9 073d
000001f0: 63c5 04bd 6011 553d 8370 eebc 66e3 233d
-0.069741644 0.07517738 -0.054500844 0.081686 -0.0100345295 0.054597814 0.048768837 0.026195066
0.0021374573 -0.08984598 -0.08388639 -0.030707655 0.0517869 0.08114022 -0.0022666685 -0.034256943
-0.024185445 0.085070275 0.06776786 0.071173094 0.08529209 -0.072681725 -0.006274354 0.06888763
-0.024964519 -0.05616467 -0.020401917 0.08080916 -0.07884021 -0.0141783105 0.0017479869 0.086562715
-0.070659444 -0.03994207 -0.0031190612 0.080568194 0.069618575 0.0063200747 0.07431258 0.02315999
0.07109513 -0.04534191 0.0619938 0.060335632 -0.033657912 0.0028573982 0.05174574 -0.08158659
0.05393726 -0.018914338 0.014322091 -0.029517464 0.05387199 -0.073097445 0.086976886 0.054703575
0.08518701 0.082632914 0.06402051 0.00022801409 -0.044812325 -0.018541796 -0.06447623 0.076183595
0.077518396 -0.028037746 0.050079968 0.0228496 -0.027725676 -0.024211727 -0.01000584 -0.068862595
0.07011755 -0.066615514 -0.036449622 -0.038231134 -0.08446365 -0.046467993 -0.0639559 0.023180874
0.034477405 0.04143152 0.061043147 0.078027055 -0.060523264 0.016258363 0.016842503 -0.091577776
-0.0026664091 0.007041071 0.016451087 0.062934294 -0.04670167 0.049008735 -0.006838289 0.010807214
0.06705531 -0.019765412 -0.0765621 -0.029629746 0.08821852 -0.08071124 -0.031636085 0.029702919
0.03209171 0.05506645 -0.020711035 0.05610774 0.057716023 0.04209499 -0.01537732 -0.026805028
-0.047596153 0.06305054 -0.032911826 -0.034879554 0.027087934 0.039162777 -0.08084759 0.009398395
-0.0808788 0.068005145 0.03570764 0.03316629 -0.032414805 0.052018523 -0.029106384 0.040011786
