savedModel/model_jun-rain.pt (torch_old, 88072 bytes, 5 tensors)

0.weight f4 [128, 39]
-0.04023851 -0.153928 -0.066980034 -0.041477565 0.04252343 0.009915001 0.006676375 -0.13267255
0.006490172 0.021286089 0.07684509 -0.1302444 0.12843251 0.113008596 -0.10878912 0.104552776
0.031583782 0.14200395 -0.04786008 0.07931796 -0.03174428 -0.04871896 -0.022648374 -0.015718661
-0.047375627 0.058605548 0.031848803 0.04479455 -0.1112441 -0.034993943 0.040402953 -0.12953186
-0.07835979 0.13360979 -0.13276125 -0.052577365 -0.13902077 -0.123297326 0.051115785 -0.0012278198
0.020165607 -0.018606434 -0.12140229 0.12177782 -0.076822 -0.044310667 -0.15668368 -0.085481256
-0.13527721 0.030492192 0.04744304 -0.019673478 -0.0030856817 -0.049062386 0.13321872 -0.15112397
0.13553064 0.0901601 -0.14871733 0.14105792 0.14754665 0.056035366 0.1114495 0.024576183
-0.14451493 -0.13318975 0.120537706 -0.018145468 -0.15331896 -0.13535891 0.023385763 0.080507174
0.0013180898 -0.043266185 0.014727277 -0.08146982 -0.10521949 -0.14548267 -0.0004275985 -0.14570673
0.128095 0.12676997 -0.04143457 0.1388495 0.15160288 0.13312763 -0.017402697 -0.0065850886
0.09887641 0.02468902 -0.03370042 0.1028263 0.03661613 -0.1201891 0.06311036 0.059160605
0.124782234 0.048453137 -0.04461688 -0.097022675 -0.028491195 -0.04156108 -0.12759027 -0.01119385
-0.08689358 0.056068048 -0.109887496 -0.025796987 -0.02367761 -0.1476692 0.07961157 0.066299774
0.1540067 -0.0797463 -0.04704227 0.087714836 -0.089050904 0.10513369 0.045092687 0.018655336
-0.0671246 0.115302175 0.12212888 0.14945503 -0.00847438 -0.05021228 0.07217954 -0.0016850742
-0.12869221 0.0037887895 0.044870548 0.11610845 -0.13795117 0.12104004 0.0070229606 0.00854453
0.10427603 0.12137669 0.031071406 -0.10229549 0.14523071 -0.08312599 0.13414577 0.09639086
0.14811975 -0.044714924 -0.074241795 0.085591875 0.025341181 0.064390145 -0.0921647 0.11658823
-0.11982543 -0.12015717 0.12828733 -0.050087217 0.102519125 0.06306175 0.07932728 0.14311317
0.046207912 -0.14140578 -0.03671687 0.1303569 -0.14525244 -0.005184044 0.09757514 0.04507901
0.14052333 0.0040859645 0.0376157 0.14085163 0.09710241 0.0033368121 0.04886499 -0.09217422
-0.0677544 0.04957604 0.15502886 -0.05061279 0.036511082 -0.15697059 0.07766262 0.14102025
-0.0399734 -0.039264515 0.020324776 0.15566942 0.13594465 0.083813585 -0.00636061 0.14366373
-0.12960742 -0.019204164 0.13171923 -0.1163266 -0.002228198 0.13027653 0.006129832 0.08474824
-0.14312676 -0.12233159 0.15470779 0.08404331 -0.14028805 0.07863232 -0.12896454 -0.15876627
0.13646112 -0.07815 0.12011576 0.15724175 0.12048505 0.11666986 0.09361917 -0.15764765
0.09488737 -0.07528716 0.06760977 0.14384764 -0.14542453 0.12618384 -0.0077741398 0.08416516
0.06583964 -0.114300616 -0.06223905 0.06256953 0.1387534 0.047063444 0.08074573 -0.051452734
-0.10787982 0.08542145 0.15831691 0.019982846 -0.1313084 -0.06724313 -0.006418136 0.07380977
-0.022492915 0.038266346 0.058796834 0.00010484808 -0.13772494 -0.09160162 0.06553846 -0.10262933
0.044139 -0.015760988 -0.07830344 -0.10599798 -0.08186892 -0.10689423 0.09297599 -0.009692746
00000000: 23d1 24bd 4d9f 1dbe d42c 89bd 61e4 29bd
00000010: 0c2d 2e3d 8772 223c 7ec5 da3b 50db 07be
00000020: 82ab d43b 2a60 ae3c f560 9d3d ca5e 05be
00000030: d083 033e 0d71 e73d d5cc debd c41f d63d
00000040: ff5d 013d 7c69 113e ee08 44bd 7471 a23d
00000050: 4a06 02bd 888d 47bd 1589 b9bc 6cc4 80bc
00000060: f20c 42bd 5f0c 703d e473 023d 7d7a 373d
00000070: f2d3 e3bd cf55 0fbd 917d 253d 00a4 04be
00000080: 197b a0bd 01d1 083e 91f2 07be 5d5b 57bd
00000090: 765b 0ebe 4f83 fcbd c95e 513d ccee a0ba
000000a0: 5832 a53c 856c 98bc c4a1 f8bd a666 f93d
000000b0: da54 9dbd 1a7f 35bd b071 20be cc10 afbd
000000c0: 1c86 0abe c3ca f93c a253 423d 462a a1bc
000000d0: 2639 4abb a4f5 48bd 7d6a 083e 3ec0 1abe
000000e0: 8bc8 0a3e dca5 b83d 5b49 18be 7d71 103e
000000f0: 7816 173e 5785 653d a33f e43d fe53 c93c
00000100: b9fb 13be e562 08be 79dc f63d cea5 94bc
00000110: a5ff 1cbe 879b 0abe 8093 bf3c f2e0 a43d
00000120: c1c3 ac3a e237 31bd ad4a 713c a6d9 a6bd
00000130: 517d d7bd 69f9 14be 4d2f e0b9 2534 15be
00000140: 562b 033e fdcf 013e 4cb7 29bd 902e 0e3e
00000150: c93d 1b3e 9c52 083e 1a90 8ebc bac7 d7bb
00000160: b77f ca3d a140 ca3c 7409 0abd 9896 d23d
00000170: ccfa 153d b425 f6bd 0140 813d 6452 723d
00000180: d48d ff3d cc76 463d 31c0 36bd d3b3 c6bd
00000190: 5e66 e9bc f33b 2abd 06a7 02be 6966 37bc
000001a0: 43f5 b1bd 9ca7 653d b20c e1bd 3454 d3bc
000001b0: 8cf7 c1bc 9836 17be 640b a33d 2dc8 873d
000001c0: efb3 1d3e 0752 a3bd 65af 40bd d6a3 b33d
000001d0: 5260 b6bd 5550 d73d 1cb3 383d 13d3 983c
000001e0: 9f78 89bd 8c23 ec3d b51e fa3d bd0a 193e
000001f0: 20d8 0abc 64ab 4dbd ded2 933d b5dd dcba
00000200: e4c7 03be 574d 783b 2eca 373d 44ca ed3d
00000210: 1243 0dbe d7e3 f73d dd20 e63b 5bfe 0b3c
00000220: ac8e d53d 5894 f83d 7689 fe3c 4c80 d1bd
00000230: 5cb7 143e f63d aabd 825d 093e 9268 c53d
00000240: b4ac 173e ff26 37bd 150c 98bd cb4a af3d
00000250: 4f98 cf3c fbde 833d d9c0 bcbd cfc5 ee3d
00000260: 0967 f5bd f614 f6bd c15d 033e 4128 4dbd
00000270: 8cf5 d13d 8526 813d 5776 a23d 428c 123e
00000280: 8244 3d3d adcc 10be 6e64 16bd 477c 053e
00000290: 0ebd 14be eade a9bb 7ad5 c73d c5a4 383d
000002a0: 59e5 0f3e 8ee3 853b ec12 1a3d 693b 103e
000002b0: a1dd c63d 6bae 5a3b a826 483d d6c5 bcbd
000002c0: d2c2 8abd 3f10 4b3d e3bf 1e3e 5b4f 4fbd
000002d0: a58c 153d e6bc 20be 940d 9f3d 9d67 103e
000002e0: 26bb 23bd d4d3 20bd 2580 a63c ce67 1f3e
000002f0: 1335 0b3e 75a6 ab3d aa6c d0bb 961c 133e
00000300: cfb7 04be 0d52 9dbc 68e1 063e a43c eebd
00000310: f606 12bb 3667 053e c2dc c83b 7c90 ad3d
00000320: d28f 12be fc88 fabd b86b 1e3e e61e ac3d
00000330: aca7 0fbe fb09 a13d 480f 04be a093 22be
00000340: 77bc 0b3e 1b0d a0bd 40ff f53d fb03 213e
00000350: dec0 f63d 9cf0 ee3d 68bb bf3d 636e 21be
00000360: 4f54 c23d 2830 9abd fe76 8a3d cc4c 133e
00000370: 2bea 14be 5636 013e 36be febb c95e ac3d
00000380: efd6 863d 7116 eabd 60ee 7ebd 7424 803d
00000390: 5f15 0e3e 99c5 403d 045e a53d 1ac0 52bd
000003a0: 18f0 dcbd 71f1 ae3d d41d 223e 11b3 a33c
000003b0: b675 06be c4b6 89bd 3a4f d2bb 9429 973d
000003c0: 1043 b8bc 2cbd 1c3d f3d4 703d e2e1 db38
000003d0: c407 0dbe a199 bbbd 0739 863d 532f d2bd
000003e0: 19cb 343d 301d 81bc 8e5d a0bd 7815 d9bd
000003f0: e4aa a7bd 5deb dabd 326a be3d 53ce 1ebc

0.bias f4 [128]
-0.12921791 0.124279484 -0.15823573 0.023939835 0.01957142 0.02674922 -0.0044157766 -7.102416e-05
-0.057590585 0.052502394 0.044763256 0.070982225 -0.13224636 0.14906298 -0.11226404 0.103763044
0.058837544 0.0067123254 0.09641507 -0.13704494 0.13393298 0.05238681 -0.09017729 0.06612048
-0.038968626 0.11911416 0.03616124 0.08653373 -0.12993026 0.13834476 0.079522625 0.104062855
-0.12663908 -0.107244976 -0.14657378 -0.034067664 0.018945474 -0.027135696 -0.06088056 0.019700069
0.047977574 0.004338432 0.09366664 0.03806415 0.13888694 0.08409667 0.04497152 -0.13906969
-0.1579205 -0.1417271 0.15834098 0.1524644 -0.049375862 0.027566964 -0.14700675 -0.14226358
-0.03852957 -0.044237614 0.01766005 -0.0017841393 -0.1391934 0.033895362 0.014936178 -0.13665679
-0.12289227 -0.07355552 -0.0008487443 0.15730782 0.016399316 -0.10164911 0.04055312 -0.07481256
-0.10327626 -0.14708982 0.10708204 0.13430753 0.07150906 0.043079544 -0.14649597 0.13152681
-0.049879253 -0.14909269 0.10128928 -0.02235267 -0.14515193 0.021358086 -0.108282305 -0.1141402
-0.06833151 -0.07273155 -0.13740218 -0.109688774 0.037889294 -0.14096594 -0.025971916 -0.08233923
-0.073330216 -0.086466715 0.0054420535 0.11455295 0.030227154 0.07468431 0.05388703 -0.15386641
0.05521621 0.1041393 -0.13404775 -0.031242317 0.00023129831 -0.14317612 -0.15099446 0.1448495
0.073336266 0.09976991 0.10458859 -0.08305524 0.044153605 0.063943036 0.031040737 0.07000788
0.010961714 0.14074953 -0.0714951 0.042706482 0.015053335 0.12724829 0.095565364 0.089501396
00000000: b351 04be 3e86 fe3d 8c08 22be 791d c43c
00000010: 3e54 a03c 2e21 db3c 38b2 90bb cef2 94b8
00000020: 1be4 6bbd c00c 573d ad59 373d 215f 913d
00000030: 976b 07be f7a3 183e b0ea e5bd b881 d43d
00000040: a3ff 703d 11f3 db3b 4475 c53d 8255 0cbe
00000050: ba25 093e 8d93 563d dfae b8bd 2d6a 873d
00000060: 919d 1fbd 20f2 f33d cf1d 143d 9938 b13d
00000070: 700c 05be 40aa 0d3e c2dc a23d e81e d53d
00000080: adad 01be 41a3 dbbd 7017 16be 898a 0bbd
00000090: 8a33 9b3c ae4b debc e55d 79bd 0a62 a13c
000000a0: 2284 443d 6829 8e3b 4cd4 bf3d 27e9 1b3d
000000b0: 6138 0e3e e03a ac3d 0e34 383d 4968 0ebe
000000c0: e9b5 21be e920 11be 2324 223e a11f 1c3e
000000d0: 583e 4abd 1dd4 e13c f088 16be 8bad 11be
000000e0: 2fd1 1dbd 8032 35bd cfab 903c c8d9 e9ba
000000f0: b788 0ebe ddd5 0a3d dfb6 743c c2ef 0bbe
00000100: f1ae fbbd 47a4 96bd 447e 5eba 4d15 213e
00000110: dc57 863c 692d d0bd 071b 263d 5437 99bd
00000120: 8182 d3bd b79e 16be d44d db3d ea87 093e
00000130: 5873 923d 2d74 303d 0a03 16be f7ae 063e
00000140: 304e 4cbd c1ab 18be c170 cf3d f21c b7bc
00000150: b5a2 14be 27f7 ae3c 1dc3 ddbd 56c2 e9bd
00000160: 64f1 8bbd 47f4 94bd 28b3 0cbe 82a4 e0bd
00000170: ce31 1b3d 6059 10be 0ec3 d4bc 78a1 a8bd
00000180: 272e 96bd 7615 b1bd 4153 b23b bd9a ea3d
00000190: f09e f73c 16f4 983d a5b8 5c3d 288f 1dbe
000001a0: 652a 623d fc46 d53d d043 09be e3ef ffbc
000001b0: ab88 7239 c39c 12be 4b9e 1abe 6d53 143e
000001c0: 5331 963d 2b54 cc3d 8b32 d63d de18 aabd
000001d0: 69da 343d 91f4 823d 2549 fe3c 4b60 8f3d
000001e0: c398 333c a520 103e 066c 92bd feec 2e3d
000001f0: 43a2 763c 604d 023e c6b7 c33d 824c b73d

2.weight f4 [128, 128]
-0.084486194 0.007677991 0.047638822 -0.08764277 -0.057180982 0.06255246 -0.060886186 -0.0741592
0.04428209 -0.035275467 0.07429011 0.08447439 0.059317928 0.04691194 0.012475387 -0.005808995
-0.028184112 0.02264879 -0.07163043 -0.015323945 0.053386834 -0.042301383 0.01483802 0.054134242
-0.06195525 -0.0061158114 -0.010074958 -0.058518566 0.07279044 0.07390353 -0.073467575 -0.03693346
-0.0689414 -0.05334801 0.052108474 0.008142692 0.048141148 0.061946128 -0.029771741 0.01317727
0.014139016 0.0606251 -0.07439401 -0.025721554 -0.025939228 0.015832433 -0.010080571 0.034918774
0.022641579 0.010767757 -0.025078386 -0.07143362 0.069882065 -0.04824843 0.030355383 0.043100897
0.04837332 -0.057724092 -0.04980654 0.06690475 -0.08003103 0.028741248 -0.01654993 0.022547835
-0.08658643 -0.017650038 -0.028870886 -0.041845217 -0.0051666046 -0.032962427 -0.011532748 -0.0035647342
0.02052068 0.04616766 0.004402157 0.083606414 0.04635813 0.0029355607 -0.06704605 0.009166947
0.037591938 0.08777844 -0.00017293735 0.074692525 0.04513446 0.014677412 0.07930723 0.031347703
-0.0016776992 -0.056903046 0.02274432 -0.053054906 -0.065987386 -0.06203017 0.06057924 0.053908207
0.023577023 -0.041831017 -0.014662056 0.030237503 -0.07304296 0.083924726 0.042507876 -0.013332588
0.066848755 0.056822196 0.081093654 -0.076724365 0.061210565 0.051835477 0.068532206 -0.039871436
0.059864897 0.06129979 0.0502185 -0.011481647 -0.06056764 -0.052478515 -0.011789728 0.038758744
-0.015817072 -0.037834637 0.035117794 0.08029799 -0.069775365 0.06693387 -0.035110965 0.0454454
0.071348965 0.06270408 0.0151333995 0.071671285 0.0134880915 -0.008186126 0.0010487644 0.061400365
-0.05204663 0.028111385 -0.0277723 0.06561087 -0.025099594 0.08336631 -0.088453025 -0.06154481
-0.007271227 -0.021788154 -0.025826277 0.087702714 0.060553048 -0.018424058 -0.03406065 0.0738346
-0.03884545 0.036566187 -0.07526708 0.0117730815 0.066096425 -0.066370234 -0.0837295 0.045031134
0.03767323 0.07305637 0.06987308 -0.07427882 0.0132949175 -0.029021524 -0.063008025 0.035696305
0.021105915 0.061050374 -0.0050001265 -0.026196342 0.06578656 0.08098917 -0.054447595 0.0091203535
0.083692454 0.045674477 -0.0058979555 -0.0052719056 0.06417824 0.02948319 -0.018261531 -0.03310886
-0.07073904 -0.08006022 -0.025094217 0.056995045 0.052765265 0.015800687 -0.0016248826 0.008806457
0.042312223 -0.000536528 0.025738828 -0.06411724 -0.059382528 0.063034825 0.024899522 -0.0037512886
-0.07560682 0.08457661 0.006706627 -0.06255231 -0.054846648 0.07781322 -0.01628399 -0.06634019
-0.02780222 0.056320168 0.07447159 -0.058962245 -0.08234289 -0.054842755 -0.06221368 -0.05933241
0.085307166 0.089336835 -0.005625854 0.05929701 -0.08480521 0.020052336 0.06578127 0.024616413
-0.085076615 -0.06367443 -0.011924091 -0.022049714 -0.06546207 -0.007579976 0.016777731 0.06408143
0.07827402 -0.04501596 0.06170114 0.08629849 0.0652299 -0.07698855 -0.041843392 0.008558663
0.049036533 0.015356934 0.08893979 0.056327563 -0.07996529 0.074368715 -0.005596772 -0.06438
-0.07881101 0.048761584 0.035076965 0.03728841 -0.021495746 0.00628793 -0.082122914 0.027002953
00000000: 1907 adbd a897 fb3b ed20 433d 0d7e b3bd
00000010: 9b36 6abd 811b 803d cb63 79bd c7e0 97bd
00000020: 2361 353d 027d 10bd 6a25 983d e900 ad3d
00000030: 5bf7 723d bc26 403d 9165 4c3c 6259 bebb
00000040: 5ee2 e6bc f589 b93c fab2 92bd 4911 7bbc
00000050: 27ac 5a3d 3744 2dbd 2b1b 733c debb 5d3d
00000060: cac4 7dbd 2567 c8bb 7011 25bc 2ab1 6fbd
00000070: 2713 953d bc5a 973d 2b76 96bd 8a47 17bd
00000080: 2631 8dbd 7183 5abd b26f 553d ed68 053c
00000090: a72f 453d 39bb 7d3d dee3 f3bc 7ae5 573c
000000a0: 55a7 673c 0652 783d e35b 98bd 02b6 d2bc
000000b0: 817e d4bc 05b3 813c fb28 25bc fd06 0f3d
000000c0: d57a b93c 3f6b 303c 3071 cdbc ca4b 92bd
000000d0: 541e 8f3d 25a0 45bd daab f83c 918a 303d
000000e0: 1a23 463d 1970 6cbd f101 4cbd 5c05 893d
000000f0: 4fe7 a3bd c472 eb3c b893 87bc 3db6 b83c
00000100: 3a54 b1bd d096 90bc a382 ecbc e465 2bbd
00000110: 9f4c a9bb 9c03 07bd daf3 3cbc 519e 69bb
00000120: fc1a a83c 4d1a 3d3d f83f 903b d739 ab3d
00000130: 06e2 3d3d 8962 403b 714f 89bd f630 163c
00000140: 01fa 193d 2fc5 b33d 8456 35b9 65f8 983d
00000150: e9de 383d 8779 703c d46b a23d 7366 003d
00000160: 3ee6 dbba 2b13 69bd 4c52 ba3c 1a50 59bd
00000170: 6524 87bd 5913 7ebd f021 783d dace 5c3d
00000180: 9a24 c13c 0057 2bbd 1f39 70bc a4b4 f73c
00000190: 8c97 95bd bae0 ab3d bd1c 2e3d ed70 5abc
000001a0: 00e8 883d 64be 683d 6e14 a63d aa21 9dbd
000001b0: eeb7 7a3d 7051 543d 9d5a 8c3d 3b50 23bd
000001c0: e534 753d 7d15 7b3d eab1 4d3d 851d 3cbc
000001d0: c615 78bd b6f3 56bd b429 41bc 7dc1 1e3d
000001e0: ce92 81bc 7ef8 1abd add7 0f3d 4673 a43d
000001f0: 63e6 8ebd a014 893d 84d0 0fbd f524 3a3d
00000200: 681f 923d ff6a 803d 14f2 773c 65c8 923d
00000210: 28fd 5c3c 1a1f 06bc b276 893a f37e 7b3d
00000220: d92e 55bd d949 e63c bc82 e3bc fe5e 863d
00000230: aa9d cdbc f5bb aa3d dc26 b5bd 6916 7cbd
00000240: 7943 eebb 127d b2bc a191 d3bc 7b9d b33d
00000250: 7906 783d 0dee 96bc 2e83 0bbd 9836 973d
00000260: 681c 1fbd 6dc6 153d a025 9abd e2e3 403c
00000270: 905d 873d 1eed 87bd 5f7a abbd 9172 383d
00000280: 3f4f 1a3d 949e 953d 9e19 8f3d 7e1f 98bd
00000290: edd2 593c 8cbe edbc 5a0a 81bd 4a36 123d
000002a0: 50e6 ac3c f50f 7a3d 1ad8 a3bb b699 d6bc
000002b0: 1bbb 863d a6dd a53d 7104 5fbd 896d 153c
000002c0: f366 ab3d 2915 3b3d a343 c1bb f3bf acbb
000002d0: e26f 833d bb86 f13c 3599 95bc 289d 07bd
000002e0: a1df 90bd 9df6 a3bd 6392 cdbc a373 693d
000002f0: 6420 583d 7170 813c 03fa d4ba f548 103c
00000300: 954f 2d3d c9a5 0cba 3cda d23c e64f 83bd
00000310: 183b 73bd 6718 813d 15fa cb3c 2ed8 75bb
00000320: c0d7 9abd 8036 ad3d 44c3 db3b 6d1b 80bd
00000330: e1a6 60bd 8a5c 9f3d 0166 85bc 5edd 87bd
00000340: 7bc1 e3bc faaf 663d 9084 983d 6582 71bd
00000350: 64a3 a8bd cca2 60bd c6d3 7ebd 8b06 73bd
00000360: 86b5 ae3d 3bf6 b63d 1559 b8bb 6ce1 723d
00000370: 5bae adbd cc44 a43c 55b8 863d 5ca8 c93c
00000380: a63c aebd bd67 82bd 435d 43bc 9aa1 b4bc
00000390: fa10 86bd 7361 f8bb 7471 893c 203d 833d
000003a0: 214e a03d a862 38bd 56ba 7c3d 43bd b03d
000003b0: 4197 853d 2cac 9dbd fa63 2bbd a239 0c3c
000003c0: 88da 483d a69b 7b3c 1126 b63d bbb7 663d
000003d0: d8c4 a3bd a04e 983d 2065 b7bb a9d9 83bd
000003e0: ab67 a1bd 3aba 473d ddac 0f3d bbbb 183d
000003f0: d917 b0bc fb0a ce3b 0f30 a8bd 4c35 dd3c

2.bias f4 [128]
-0.085811265 0.0122112725 0.010573617 0.071062535 -0.015639834 -0.054931305 0.043143753 -0.04555031
-0.0109167155 0.05870259 -0.065573074 -0.06288382 0.038659487 0.06016072 0.012704813 0.06511787
-0.08787021 -0.0101495795 -0.013372863 0.085996136 -0.047664985 0.03456306 -0.063919 -0.06985773
-0.047003843 0.07595809 -0.052192554 -0.0044004894 -0.011868718 0.0036552057 0.0054968414 -0.06105081
-0.07375873 -0.07556722 0.022421762 -0.06559951 0.0115320645 0.014518908 -0.0019405187 -0.02975302
0.03158545 0.044082478 0.006230365 0.034550387 -0.024178086 -0.05921022 -0.021339986 -0.07655912
-0.014228475 -0.020573579 0.018215878 0.0115023535 0.06382569 0.0081714075 0.032444265 -0.03688838
0.038077924 -0.02520262 -0.066534586 0.0808862 0.058150318 -0.023576817 0.055713914 -0.06355033
0.06101172 -0.047721867 0.016718186 -0.014467371 -0.04067557 -0.06400059 -0.038608953 0.024942217
-0.05936635 0.042855278 0.06908003 -0.082533844 0.07692958 0.027997775 0.037153665 0.07836621
0.07208235 -0.002360132 0.07980502 0.05543827 -0.07978236 -0.047895372 -0.019830618 -0.010688878
0.012745728 0.048034944 -0.04653384 -0.07309013 -0.07264486 0.07891158 0.026764618 -0.04303548
0.00013809085 0.03981094 -0.07853912 -0.06780874 0.02991976 0.08477834 -0.017178206 0.07887667
0.02146485 -0.08069694 -0.012090042 -0.011295968 -0.051690545 0.04858438 -0.0076156547 0.030109642
0.06293615 0.07629313 0.061392915 -0.07533346 -0.08083565 -0.005853926 -0.058899425 0.025525229
0.08236795 -0.082204774 0.04375665 -0.032529105 -0.020813443 0.068082444 -0.068577915 -0.021568619
00000000: d1bd afbd ca11 483c f73c 2d3c 3c89 913d
00000010: 1c1f 80bc a6ff 60bd 81b7 303d f692 3abd
00000020: 06dc 32bc 2172 703d 2d4b 86bd 3bc9 80bd
00000030: 6959 1e3d 166b 763d d927 503c 855c 853d
00000040: 4cf5 b3bd 6c4a 26bc da19 5bbc be1e b03d
00000050: 5c3c 43bd ff91 0d3d f7e7 82bd 9211 8fbd
00000060: 1a87 40bd ea8f 9b3d dcc7 55bd fb31 90bb
00000070: 0375 42bc 2d8c 6f3b d91e b43b 6a10 7abd
00000080: d10e 97bd fdc2 9abd d8ad b73c 0959 86bd
00000090: fcf0 3c3c b7e0 6d3c 0159 feba 9bbc f3bc
000000a0: bf5f 013d d48f 343d 1728 cc3b b584 0d3d
000000b0: 1f11 c6bc 6a86 72bd 32d1 aebc 07cb 9cbd
000000c0: 8d1e 69bc ec89 a8bc 7739 953c 5e74 3c3c
000000d0: 0bb7 823d 5ee1 053c 47e4 043d 4518 17bd
000000e0: 99f7 1b3d ba75 cebc 4943 88bd aaa7 a53d
000000f0: 072f 6e3d 2b24 c1bc 4634 643d ad26 82bd
00000100: 6de7 793d 0178 43bd 94f4 883c 8d08 6dbc
00000110: 6d9b 26bd be12 83bd 6c24 1ebd 9f53 cc3c
00000120: 212a 73bd 0489 2f3d d579 8d3d 8107 a9bd
00000130: 418d 9d3d 975b e53c 712e 183d 777e a03d
00000140: e99f 933d 72ac 1abb d070 a33d 3d13 633d
00000150: ef64 a3bd f02d 44bd d273 a2bc 6720 2fbc
00000160: 75d3 503c 4ac0 443d 459a 3ebd 47b0 95bd
00000170: d4c6 94bd 659c a13d 7941 db3c f945 30bd
00000180: 7bcc 1039 cc10 233d 1ed9 a0bd 4fdf 8abd
00000190: 491a f53c 44a0 ad3d 4fb9 8cbc 178a a13d
000001a0: 0ed7 af3c 7044 a5bd 5015 46bc b912 39bc
000001b0: 77b9 53bd 6a00 473d be8c f9bb 7fa8 f63c
000001c0: abe4 803d 933f 9c3d 2377 7b3d 6e48 9abd
000001d0: 298d a5bd 4ad2 bfbb 8640 71bd 491a d13c
000001e0: 87b0 a83d fa5a a8bd 2c3a 333d 3d3d 05bd
000001f0: f480 aabc cf6e 8b3d 9472 8cbd acb0 b0bc

4.weight f4 [1, 128]
-0.06932944 0.076506905 -0.05411358 0.08171653 -0.010330333 0.05463751 0.050340634 0.026160408
0.0023467797 -0.088795915 -0.08407897 -0.030893885 0.05240501 0.08109927 -0.0018466822 -0.032678317
-0.02457267 0.085757636 0.06794828 0.07274501 0.08545301 -0.07201956 -0.0064942166 0.06867908
-0.024637176 -0.0550338 -0.020006813 0.081125624 -0.07855262 -0.013800146 0.0012116224 0.086587615
-0.06999086 -0.040039457 -0.0025374165 0.0805335 0.070267685 0.007182253 0.07557661 0.02300571
0.071938865 -0.044825304 0.06273598 0.061837506 -0.03307746 0.0034724015 0.052574165 -0.081692986
0.053793587 -0.01860545 0.014525909 -0.028644705 0.054864235 -0.07334509 0.08775004 0.05464949
0.08519267 0.08281125 0.063733414 0.00017172196 -0.04425169 -0.018664429 -0.06407559 0.07709492
0.0796381 -0.028316114 0.050931897 0.022752214 -0.027435344 -0.024149563 -0.009383707 -0.0678789
0.07060363 -0.06551 -0.03491487 -0.038023967 -0.084408864 -0.046607 -0.063242495 0.02413333
0.035052955 0.042411912 0.061972592 0.07897635 -0.06058637 0.016919207 0.017683484 -0.09089919
-0.0024292017 0.0073685828 0.016171917 0.06348022 -0.046213564 0.048875723 -0.0055608368 0.010989205
0.06828875 -0.01793832 -0.07682351 -0.029663872 0.08888519 -0.08067617 -0.030066824 0.031054804
0.032437984 0.05504868 -0.020916233 0.056606386 0.057554986 0.04320184 -0.015272364 -0.026411608
-0.04756228 0.064301364 -0.03138467 -0.034630045 0.02699592 0.041049406 -0.08100474 0.010848192
-0.080558255 0.06777183 0.036623903 0.03299985 -0.032300066 0.054310236 -0.0290451 0.04070012
00000000: 98fc 8dbd a7af 9c3d 34a6 5dbd ff5a a73d
00000010: 8f40 29bc 95cb 5f3d fb31 4e3d 5a4e d63c
00000020: 6ecc 193b a2da b5bd 9831 acbd 2c15 fdbc
00000030: a3a6 563d 6017 a63d 5f0c f2ba b3d9 05bd
00000040: a04c c9bc b3a1 af3d 7828 8b3d 56fb 943d
00000050: fd01 af3d fe7e 93bd 70cd d4bb 9ea7 8c3d
00000060: e7d3 c9bc 1f6b 61bd 54e5 a3bc 3125 a63d
00000070: 32e0 a0bd 021a 62bc 4dcf 9e3a d954 b13d
00000080: 5e57 8fbd 6a00 24bd c94a 26bb bfee a43d
00000090: 81e8 8f3d 1b59 eb3b e9c7 9a3d 7976 bc3c
000000a0: af54 933d bd9a 37bd b97b 803d 5349 7d3d
000000b0: 3b7c 07bd 3b91 633b 0258 573d a74e a7bd
000000c0: aa56 5c3d 756a 98bc 14fe 6d3c 4da8 eabc
000000d0: 52b9 603d f335 96bd 4bb6 b33d 25d8 5f3d
000000e0: 7f79 ae3d f298 a93d aa86 823d 4310 3439
000000f0: 4341 35bd 25e6 98bc 103a 83bd f1e3 9d3d
00000100: 4d19 a33d 32f7 e7bc f79d 503d da62 ba3c
00000110: 16c0 e0bc 4ed5 c5bc 1fbe 19bc 1804 8bbd
00000120: a398 903d 1b2a 86bd e502 0fbd 05bf 1bbd
00000130: 8ede acbd fbe6 3ebd 4885 81bd 43b3 c53c
00000140: b093 0f3d 1db8 2d3d f9d6 7d3d 5abe a13d
00000150: 6a29 78bd 269a 8a3c f4dc 903c 5b29 babd
00000160: 3e33 1fbb 2774 f13b f87a 843c eb01 823d
00000170: 6f4a 3dbd e931 483d ae37 b6bb 110c 343c
00000180: f9da 8b3d 62f3 92bc a555 9dbd a601 f3bc
00000190: 7009 b63d 8c39 a5bd b34e f6bc a566 fe3c
000001a0: b1dd 043d ba7a 613d 8558 abbc 19dc 673d
000001b0: c7be 6b3d 6af4 303d f038 7abc 285d d8bc
000001c0: aad0 42bd 6fb0 833d 368d 00bd 3cd8 0dbd
000001d0: 8c26 dd3c 6c23 283d d0e5 a5bd 9dbc 313c
000001e0: bafb a4bd f5cb 8a3d f202 163d da2a 073d
000001f0: 134d 04bd 6974 5e3d fdef edbc 2bb5 263d
